Machine-Learning/HeartSoundTrainedFiles/heartbeatclassifier_model.tflite (tflite, 967260 bytes, 10 tensors)

sequential_3/conv2d_7/Conv2D/ReadVariableOp f4 [1, 5, 5, 24]
0.04979693 0.09151468 -0.030662362 -0.059501484 0.08675974 0.06750187 0.00033144184 0.0888143
0.070565514 0.054273736 0.014183065 -0.09264962 -0.0280824 -0.05668507 0.057003975 0.0131270895
-0.057736564 -0.0021817118 0.0119718425 0.054701652 -0.023103202 0.0053553516 0.056579072 -0.09002157
-0.032335885 0.088868745 0.007888747 -0.061960224 0.060793 0.0024382751 0.026599664 -0.018610125
0.07239942 -0.054450862 -0.009274985 -0.08878897 0.02969992 0.042933162 -0.012234503 -0.06827715
-0.093172 -0.07358963 0.034181044 -0.03464117 -0.038452126 0.10493321 0.049191523 -0.00066882215
-0.071975246 0.08127896 -0.0071762432 -0.039267574 0.060281333 -0.055868533 0.06593555 0.07142293
0.032040533 0.045941412 -0.07291916 0.08293062 0.022775352 -0.06942469 -0.007387294 0.05922448
-0.042804044 0.006136252 0.0059678205 0.026469331 0.030856237 -0.051512863 0.054926798 0.096255526
0.09543179 -0.006762595 0.00887966 0.078622445 -0.026218008 -0.0826714 0.11302928 0.018067526
0.06721856 0.022693295 -0.038969822 0.059974346 -0.063605845 0.10790454 -0.042795613 0.075739235
0.07435685 0.112829514 0.052717626 -0.022844013 -0.012085339 0.07104269 0.020111216 -0.084894545
-0.08921263 0.07647351 -0.015879443 -0.028279476 -0.010198676 0.061985675 -0.059300963 -0.05833839
-0.09511761 -0.017596807 -0.009213108 0.061795354 -0.071982354 -0.017266225 -0.026283313 0.047762595
0.007340315 0.07085785 0.07463402 0.06992316 0.0075276406 0.04247676 0.07567395 -0.0452294
0.0344615 0.02977526 0.031283 0.038445 -0.01658121 -0.0061823977 0.033140477 -0.0075408537
-0.01221084 0.036956824 0.030697461 0.07968776 0.05868336 0.10292394 0.048492845 -0.09893203
0.020832434 -0.05962453 0.05293591 -0.05958617 -0.011314503 0.08808597 -0.08566726 -0.07591371
0.091631725 -0.049220584 -0.053382184 -0.071636975 -0.07803989 0.051944565 -0.02642707 0.06328845
0.0528453 0.06896729 0.041566372 0.018517625 -0.059815995 0.080318496 0.026834019 0.07165269
-0.036975965 -0.11643752 0.059201624 0.033627275 -0.040412776 0.07221733 0.017908487 0.018455189
0.07432166 0.02064415 0.015982622 -0.007514262 0.074724086 0.09043368 0.043580968 -0.05425217
-0.09995666 0.083312534 0.05472747 -0.035587154 0.09251069 0.029934982 0.006621969 -0.010647141
-0.09345255 -0.047439825 0.078751825 0.0033528998 -0.07110758 0.099570885 -0.07546199 0.049984355
0.097797066 -0.02535154 -0.06577871 -0.02786328 -0.08814254 0.05899605 0.09067124 0.09393795
-0.040752325 -0.028555257 0.06632666 0.05830163 -0.013185289 -0.010324699 0.04638799 0.06342428
0.02930709 -0.119348235 -0.09135894 -0.01290912 0.007459571 0.050131347 0.019242786 -0.013796648
-0.071785755 0.036653217 -0.020504126 -0.092194445 -0.05784298 0.0074915066 0.059291877 0.01958218
0.06941152 0.07907969 0.09737558 -0.061172273 0.05068149 -0.06285411 0.078806475 0.060678538
0.08494781 -0.018300982 -0.081487335 -0.043371845 0.014064169 0.110837296 0.09552842 0.068872765
0.07880241 0.0059950175 0.031660553 -0.07164079 -0.041041113 -0.08634003 -0.06009358 -0.020912752
-0.087464534 0.07512966 0.04776836 -0.036514103 -0.006063396 0.048173185 -0.10256104 -0.12156098
00000000: def7 4b3d 0c6c bb3d a22f fbbc d4b7 73bd
00000010: 17af b13d 6c3e 8a3d 5fc5 ad39 46e4 b53d
00000020: a784 903d 234e 5e3d 1660 683c 15bf bdbd
00000030: 100d e6bc 9b2e 68bd 007d 693d 0113 573c
00000040: 2d7d 6cbd 0dfb 0ebb 8c25 443c d70e 603d
00000050: ed42 bdbc f27b af3b 75bf 673d 3b5d b8bd
00000060: a272 04bd d100 b63d ce3f 013c 01ca 7dbd
00000070: 1502 793d 78cb 1f3b 8ae7 d93c 4374 98bc
00000080: 2646 943d de07 5fbd 1bf6 17bc fed6 b5bd
00000090: 3f4d f33c afda 2f3d 3a73 48bc e4d4 8bbd
000000a0: f6d0 bebd 29b6 96bd 6c01 0c3d e6e3 0dbd
000000b0: fa7f 1dbd 39e7 d63d 0d7d 493d e553 2fba
000000c0: c267 93bd 9575 a63d b126 ebbb 09d7 20bd
000000d0: 8fe9 763d 67d6 64bd 3809 873d 2f46 923d
000000e0: ef3c 033d 102d 3c3d a456 95bd 87d7 a93d
000000f0: 6093 ba3c 882e 8ebd 1d11 f2bb 5e95 723d
00000100: 4b53 2fbd 9d12 c93b b58d c33b 36d6 d83c
00000110: 38c6 fc3c 27ff 52bd ecfa 603d 9e21 c53d
00000120: be71 c33d c298 ddbb fe7b 113c ce04 a13d
00000130: 26c7 d6bc 9f4f a9bd e57b e73d 5902 943c
00000140: e2a9 893d 4ae7 b93c d29e 1fbd a9a7 753d
00000150: c843 82bd 0efd dc3d 744a 2fbd 2c1d 9b3d
00000160: 6748 983d 2913 e73d 70ee 573d 5e23 bbbc
00000170: 9601 46bc d47e 913d 47c0 a43c 31dd adbd
00000180: 1db5 b6bd 259e 9c3d 9b15 82bc 5caa e7bc
00000190: 5918 27bc b1e4 7d3d 91e5 72bd 3cf4 6ebd
000001a0: 06cd c2bd 2e27 90bc 93f2 16bc 201d 7d3d
000001b0: 7c6b 93bd e671 8dbc 1a50 d7bc b6a2 433d
000001c0: 0687 f03b ec1d 913d b9d9 983d e033 8f3d
000001d0: 6daa f63b 1cfc 2d3d f2fa 9a3d 7742 39bd
000001e0: 8027 0d3d 3feb f33c 9a22 003d 8178 1d3d
000001f0: 51d5 87bc b695 cabb 4fbe 073d 4419 f7bb
00000200: fa0f 48bc 0a60 173d 3e79 fb3c 5633 a33d
00000210: f75d 703d c9c9 d23d 6fa0 463d e09c cabd
00000220: c8a8 aa3c da38 74bd 53d3 583d a110 74bd
00000230: 7760 39bc 6b66 b43d 5172 afbd a678 9bbd
00000240: 6aa9 bb3d 869b 49bd 47a7 5abd 68b6 92bd
00000250: 61d3 9fbd d3c3 543d 957d d8bc 609d 813d
00000260: 5074 583d b93e 8d3d 8041 2a3d 46b2 973c
00000270: 9e01 75bd 067e a43d 04d3 db3c a5be 923d
00000280: 1c74 17bd cb76 eebd 677d 723d c1bc 093d
00000290: de87 25bd aee6 933d d2b4 923c 562f 973c
000002a0: f435 983d ec1d a93c fded 823c 333a f6bb
000002b0: f108 993d 4b35 b93d f581 323d 8637 5ebd
000002c0: 14b6 ccbd c39f aa3d e929 603d d6c3 11bd
000002d0: 3f76 bd3d 353a f53c 1afd d83b 5971 2ebc
000002e0: 0d64 bfbd 4350 42bd a348 a13d 53bc 5b3b
000002f0: daa0 91bd d2eb cb3d d18b 9abd 65bc 4c3d
00000300: d449 c83d 08ae cfbc fdb6 86bd 8941 e4bc
00000310: 1384 b4bd d8a5 713d d8b1 b93d 8a62 c03d
00000320: e9eb 26bd b7ec e9bc 46d6 873d b1cd 6e3d
00000330: 1c07 58bc ed28 29bc 5501 3e3d 97e4 813d
00000340: 6c15 f03c d96c f4bd 651a bbbd c680 53bc
00000350: 6b6f f43b 8756 4d3d 0ca3 9d3c 560b 62bc
00000360: 6904 93bd af21 163d 45f8 a7bc 71d0 bcbd
00000370: c3ec 6cbd 507b f53b 0adc 723d cf6a a03c
00000380: a127 8e3d 88f4 a13d d96c c73d c78f 7abd
00000390: 6597 4f3d a8b9 80bd 4a65 a13d 0f8a 783d
000003a0: 1ef9 ad3d f1eb 95bc d5e2 a6bd ada6 31bd
000003b0: 666d 663c aafe e23d 67a4 c33d 2a0d 8d3d
000003c0: 2863 a13d da71 c43b 7fae 013d 68b8 92bd
000003d0: ba1a 28bd 0bd3 b0bd b024 76bd 3851 abbc
000003e0: 9b20 b3bd 94dd 993d c1a8 433d d08f 15bd
000003f0: 74af c6bb 3f51 453d 860b d2bd f7f4 f8bd

sequential_3/conv2d_7/Conv2D_bias f4 [24]
0.019421378 0.0025202956 -0.019901538 0.022902934 -0.02139057 0.0041688764 -0.0057891454 0.0015286154
-0.01624007 -0.008865573 -0.00044230316 -0.013492184 -0.019145189 -0.0064325635 -0.018872362 -0.010447686
0.0026290365 -0.0018292159 -0.0015701405 -0.0141592575 -0.020229425 0.008575651 -0.0066716797 -0.004492011
00000000: 9519 9f3c 8b2b 253b 8d08 a3bc ef9e bb3c
00000010: 473b afbc 129b 883b dfb2 bdbb d25b c83a
00000020: e509 85bc e940 11bc ede4 e7b9 520e 5dbc
00000030: 5fd6 9cbc 41c8 d2bb 369a 9abc c52c 2bbc
00000040: ea4b 2c3b 4dc2 efba 2ccd cdba 3bfc 67bc
00000050: 2eb8 a5bc e380 0c3c 1b9e dabb b831 93bb

sequential_3/conv2d_8/Conv2D/ReadVariableOp f4 [48, 5, 5, 24]
-0.05731928 -0.055315603 0.005555164 0.028889604 -0.012534813 -0.021351427 -0.05757953 0.027082033
0.026430193 -0.05088438 -0.05042162 -0.059145376 -0.032858968 -0.02951045 0.04827043 0.008591852
-0.045834176 0.048959546 -0.03888273 -0.06021074 -0.045977104 -0.060735673 -0.022110716 0.011421924
-0.0061912136 -0.00415432 -0.005240225 0.006204499 -0.061938643 -0.008656392 -0.013064304 0.017643783
0.015224851 -0.012009192 0.02743266 -0.025058333 -0.02415297 -0.07027084 0.0067905346 -0.03870137
-0.04811414 -0.06678349 0.012549413 0.004740114 -0.048715957 0.032342985 -0.058871854 0.030186756
0.031201165 -0.025858343 -0.064534016 -0.0368286 -0.051494524 0.0653006 0.05600208 -0.010313581
0.007531697 -0.016155757 0.042337008 0.06296367 0.052815884 -0.054448713 -0.020849217 0.039173067
0.03381729 -0.011692347 0.0261413 0.035976443 0.03441602 0.0053264005 0.013942773 -0.008208818
0.039310638 0.009714232 0.060158856 -0.011017928 0.024627525 0.010178776 0.08255281 -0.024088819
-0.058441345 -0.032467373 -0.039284352 0.00809834 0.04864068 -0.023170298 -0.045741454 -0.010085077
-0.026347823 0.020538246 -0.04188347 0.02598965 0.017309573 0.0763037 0.040117707 0.0085257
-0.017191224 -0.014779061 -0.015882302 -0.038459316 0.032162517 0.054336805 0.057242397 -0.012026596
0.0063988296 -0.010972652 -0.00024994934 0.025471834 -0.03940974 0.01896042 0.003285333 -0.011866581
0.037620157 0.012087041 -0.05589183 0.015639704 -0.010076843 0.06744413 -0.051095918 0.016283257
-0.028535439 0.038816154 0.042252116 0.0064735836 0.051237844 -0.01285069 0.022282207 -0.039849658
-0.028015396 -0.0052058096 0.0021716398 0.010633286 -0.052141007 -0.05352338 -0.054468162 -0.027350944
0.0426846 -0.05782679 -0.05258498 -0.04846855 -0.049052667 -0.06838859 -0.02048646 -0.006591194
-0.048616715 -0.026386593 -0.053095 -0.054208472 -0.0065661613 -0.026597654 0.01860132 -0.04739515
-0.013225277 -0.0440955 -0.036304817 0.0093292575 0.022678465 0.036171086 0.07433337 0.028139755
-0.014375808 0.011386078 -0.06031902 0.019661158 0.037699692 -0.043803938 -0.07954199 0.050722156
-0.019322312 0.03731912 0.037232388 0.032911688 0.022217887 -0.0066289813 -0.022595918 0.014132121
-0.0011218132 0.015610806 0.0042628027 -0.029250415 -0.06774429 0.03229026 -0.025469346 0.020831253
0.05572425 0.035643976 0.05530808 0.06026929 -0.008333182 -0.043174908 -0.02383404 0.064739004
-0.05120023 0.019337066 -0.010782023 -0.04781199 0.047026545 -0.025989678 -0.04183694 0.015207518
0.014241442 -0.021851623 -0.058721706 0.053339813 0.045778308 0.015475551 0.03302532 0.043547135
-0.045158483 0.05449121 0.0057440554 -0.016867986 0.04745956 0.043352466 0.014206509 0.008695169
-0.0151482625 -0.029522073 -0.006033992 -0.013452605 -0.04332152 0.03855793 -0.012097068 0.041855484
0.027619926 0.04924086 -0.010120048 0.009091925 0.045771554 -0.03594174 0.037717152 -0.027205344
0.037163056 -0.038413405 0.013701966 0.038265444 0.010405818 -0.030100547 -0.03758495 0.05392554
-0.016045919 -0.061482072 0.021391002 0.011372945 -0.055189185 -0.026409445 -0.0012528308 -0.06523147
-0.018700326 -0.0069494788 -0.0187355 -0.07137466 0.008157178 -0.035016134 0.010473526 -0.06467113
00000000: 9fc7 6abd 9d92 62bd 1808 b63b e4a9 ec3c
00000010: d15e 4dbc 30e9 aebc 83d8 6bbd 24db dd3c
00000020: 2284 d83c 246c 50bd e786 4ebd 6c42 72bd
00000030: 2097 06bd e6bf f1bc 37b7 453d d7c4 0c3c
00000040: 9ebc 3bbd ce89 483d 7f43 1fbd 899f 76bd
00000050: 7d52 3cbd f8c5 78bd 8821 b5bc 0623 3b3c
00000060: aadf cabb f620 88bb 31b6 abbb 1c4f cb3b
00000070: 60b3 7dbd 8ad3 0dbc aa0b 56bc b289 903c
00000080: a771 793c 34c2 44bc 75ba e03c 2247 cdbc
00000090: 73dc c5bc 28ea 8fbd 2283 de3b 5485 1ebd
000000a0: 5513 45bd c8c5 88bd 0e9c 4d3c f552 9b3b
000000b0: 628a 47bd 147a 043d 9d23 71bd 374a f73c
000000c0: 9699 ff3c e0d4 d3bc 692a 84bd 96d9 16bd
000000d0: eceb 52bd 52bc 853d 7062 653d 4bfa 28bc
000000e0: 74cc f63b 1459 84bc 9269 2d3d 19f3 803d
000000f0: 7855 583d 9d05 5fbd facb aabc f073 203d
00000100: 0084 0a3d 4291 3fbc 4826 d63c 095c 133d
00000110: d0f7 0c3d 1689 ae3b 3b70 643c 477e 06bc
00000120: 3104 213d 7128 1f3c 2269 763d 8a84 34bc
00000130: aabf c93c e2c4 263c 7311 a93d ea55 c5bc
00000140: 3160 6fbd 82fc 04bd a1e8 20bd e6ae 043c
00000150: 733b 473d a3cf bdbc 645b 3bbd e13b 25bc
00000160: 64d7 d7bc d33f a83c 008e 2bbd 3fe8 d43c
00000170: cecc 8d3c 1d45 9c3d 7752 243d 61af 0b3c
00000180: 9cd4 8cbc e023 72bc 9a1b 82bc 8487 1dbd
00000190: d8bc 033d 4590 5e3d 0177 6a3d 330b 45bc
000001a0: 46ad d13b a3c6 33bc a20b 83b9 4faa d03c
000001b0: 1c6c 21bd e252 9b3c be4e 573b 0c6c 42bc
000001c0: 9817 1a3d b908 463c d5ee 64bd d61e 803c
000001d0: 5819 25bc 2620 8a3d f449 51bd 7764 853c
000001e0: 27c3 e9bc b0fd 1e3d 8e10 2d3d 5b20 d43b
000001f0: c6de 513d b38b 52bc 2d89 b63c 6539 23bd
00000200: 8b80 e5bc 7f95 aabb 1252 0e3b 3c37 2e3c
00000210: cf91 55bd 553b 5bbd 021a 5fbd 160f e0bc
00000220: 0cd6 2e3d c9db 6cbd 5963 57bd f586 46bd
00000230: 73eb 48bd 510f 8cbd 38d3 a7bc f1fa d7bb
00000240: 5222 47bd b228 d8bc 257a 59bd b409 5ebd
00000250: f428 d7bb 53e3 d9bc cc61 983c 6b21 42bd
00000260: d5ae 58bc 7c9d 34bd 5cb4 14bd bed9 183c
00000270: 30c8 b93c 2228 143d 183c 983d 5885 e63c
00000280: 8288 6bbc ac8c 3a3c 1411 77bd 7010 a13c
00000290: fe6a 1a3d c26b 33bd e9e6 a2bd 09c2 4f3d
000002a0: d349 9ebc efdb 183d fd80 183d 68ce 063d
000002b0: 4902 b63c ed37 d9bb 131b b9bc 698a 673c
000002c0: ce09 93ba 77c4 7f3c fbae 8b3b 919e efbc
000002d0: 85bd 8abd cb42 043d 17a5 d0bc 4ea6 aa3c
000002e0: 1c3f 643d 6bff 113d ba8a 623d eedc 763d
000002f0: e687 08bc 2cd8 30bd 9b3f c3bc e295 843d
00000300: 55b7 51bd c468 9e3c 15a7 30bc 81d6 43bd
00000310: e89e 403d 4ee8 d4bc 365d 2bbd f428 793c
00000320: f054 693c 2d02 b3bc 2c86 70bd d97a 5a3d
00000330: 0982 3b3d 2a8d 7d3c 8f45 073d 7b5e 323d
00000340: 1af8 38bd 2d32 5f3d a138 bc3b bb2e 8abc
00000350: f564 423d 5b92 313d 6bc2 683c 2f76 0e3c
00000360: 6b30 78bc 46d8 f1bc cbb8 c5bb 5168 5cbc
00000370: e871 31bd ecee 1d3d c832 46bc a870 2b3d
00000380: 2f43 e23c c9b0 493d 8fce 25bc 4cf6 143c
00000390: f47a 3b3d a537 13bd 4d7d 1a3d bedd debc
000003a0: 4a38 183d 6057 1dbd 367e 603c 3abc 1c3d
000003b0: 2a7d 2a3c 6c95 f6bc adf2 19bd 07e1 5c3d
000003c0: bb72 83bc a0d4 7bbd 2f3c af3c 9755 3a3c
000003d0: 0e0e 62bd 9f58 d8bc 0736 a4ba 1498 85bd
000003e0: 6d31 99bc 74b8 e3bb 317b 99bc e12c 92bd
000003f0: afa5 053c 146d 0fbd 2799 2b3c 4c72 84bd

sequential_3/conv2d_8/Conv2D_bias f4 [48]
0.0011952561 -0.0064016907 0.013196816 0.0011279599 -0.01928646 0.002251546 0.011519795 -0.010301212
0.01102964 -0.003672372 0.0033245136 0.0065920544 -0.013918459 0.0066873524 0.0065463777 0.018254258
0.0020948115 0.007663001 0.008345901 -0.005413877 0.009121416 0.0045926734 0.008330334 -0.023402244
0.0076500704 -0.0104832 -0.018302666 0.004721076 0.024043046 0.01545445 -0.012069391 0.0058236592
0.0022649379 -0.0015035649 0.0121721085 -0.0036097548 -0.014549769 0.009751207 -0.0054222564 0.0058962633
-0.0035502247 0.0038307516 0.016001472 0.0034625847 0.0019235708 -0.0059655183 -0.0247058 -0.0024377212
00000000: 24aa 9c3a 46c5 d1bb 7537 583c 0ed8 933a
00000010: a3fe 9dbc ac8e 133b 86bd 3c3c 6ac6 28bc
00000020: aab5 343c 2eac 70bb 15e0 593b 2902 d83b
00000030: 400a 64bc 9421 db3b ff82 d63b f489 953c
00000040: 1b49 093b e919 fb3b 3fbd 083c e466 b1bb
00000050: fe71 153c 237e 963b f47b 083c 10b6 bfbc
00000060: 71ad fa3b bac1 2bbc 79ef 95bc 42b3 9a3b
00000070: ecf5 c43c a934 7d3c b2be 45bc 65d4 be3b
00000080: 5a6f 143b 4413 c5ba 866d 473c a391 6cbb
00000090: 2862 6ebc 87c3 1f3c 2fad b1bb 7135 c13b
000000a0: e3aa 68bb 590d 7b3b 8515 833c 88ec 623b
000000b0: 5320 fc3a 657a c3bb d163 cabc 2dc2 1fbb

sequential_3/conv2d_9/Conv2D/ReadVariableOp f4 [48, 5, 5, 48]
0.0041335556 -0.02083246 0.03638868 0.0075063044 -0.031841382 0.052130572 -0.008459383 -0.00013591642
-0.03791926 0.03247749 0.023898639 -0.03509396 -0.010445251 0.018807517 0.051521935 0.04602586
0.021564035 -0.0018156001 0.045154702 0.01168519 0.026595395 0.030193936 0.0020429348 0.024620852
-0.024146713 0.033114497 0.0104501955 0.009778389 0.035777967 -0.03115431 0.008149606 0.054230496
-0.039254658 0.023740377 -0.006040412 -0.033502895 -0.0065144165 -0.010295295 0.033603773 -0.009296771
0.055050727 0.019403221 0.0049052723 -0.021164024 0.05429665 -0.012454598 0.046052057 0.021788081
-0.036183227 -0.04710488 -0.038313698 -0.038713057 -0.048166543 -0.0007869467 -0.0025213207 0.04535714
-0.046848144 0.02185038 0.028841686 -0.04389407 -0.037516437 -0.04934605 -0.057594106 -0.036416523
0.021001177 -0.055864815 0.006743021 -0.056728683 -0.018057195 -0.026714226 -0.019614281 -0.024701104
-0.044968016 -0.01848724 0.032267824 0.05224103 -0.012587885 -0.033068158 -0.058013145 -0.03275054
-0.01746273 0.011038022 0.030875346 -0.045369264 0.031987727 0.0437677 0.029184118 -0.017469533
0.039326165 0.013452549 0.030515373 0.030680126 0.01056257 -0.007474321 0.012072687 0.0028002346
0.0044306614 0.030329939 0.0033045313 0.036949664 0.020087082 -0.0017122255 0.037822723 0.042309012
-0.015383334 -0.017335463 -0.004255605 -0.011975318 0.0032829556 -0.01725142 -0.024743577 -0.014495603
-0.034447793 -0.03782665 0.035659887 -0.03139896 -0.028447999 0.023130938 0.009196135 -0.037052028
-0.024843791 -0.05639675 0.024305005 0.053708285 0.042027697 0.0026106152 -0.024055628 -0.003279906
-0.014614383 0.0128085455 -0.041764077 0.036900684 -0.049132343 -0.02054425 0.029362768 -0.02494325
-0.03199138 0.011263278 0.027354125 0.058642946 0.03004668 -0.017371971 0.002332696 0.024692731
-0.04478732 -0.035722468 -0.046380073 0.008737844 -0.0081271 -0.035320833 0.039270107 0.02772968
-0.0317252 0.024977526 -0.042307757 -0.013641007 -0.03575606 -0.0043510697 0.021518748 -0.044576015
-0.07729684 -0.037145264 0.022525016 -0.011870636 -0.03601152 -0.042008944 0.037214473 0.014071809
0.036921736 -0.04561897 0.010808541 0.014863804 0.024897542 0.01991412 -0.034411963 0.035258465
0.031683158 0.044549916 0.014189559 0.049103215 -0.043249715 -0.049559847 0.052473314 -0.025890457
-0.02648245 0.026924293 0.04393137 -0.035959158 0.050468095 0.026829032 -0.018184174 0.021334322
0.02451177 0.031029506 0.015345615 -0.0655607 -0.0057736267 -0.033064213 -0.01810384 -0.0052880812
0.01525066 -0.06574364 -0.061233494 -0.015165352 0.044906825 0.014702086 -0.024000313 -0.040898412
-0.059356894 0.020861339 -0.05063147 -0.009295089 -0.0396956 -0.03278345 0.048787866 -0.007837414
0.015933791 0.03756854 0.016074209 0.048890494 0.003366577 0.008054889 -0.0042370493 -0.056436714
-0.03191041 0.0027697182 -0.013075308 -0.041127715 0.0031304823 0.015289199 0.013059509 -0.06572624
-0.020264078 0.025490148 0.03621049 -0.01042252 0.020942569 0.034231544 0.0167038 0.014718647
0.0041525033 -0.0095275175 -0.042483144 0.0056683375 -0.061307233 -0.021454534 0.0073465873 0.036675762
0.04767446 -0.056377042 -0.031018123 0.0063346247 -0.020819964 0.0032108682 0.0019482062 -0.01740973
00000000: c772 873b d6a8 aabc 4c0c 153d 72f7 f53b
00000010: 1c6c 02bd de86 553d 3999 0abc c984 0eb9
00000020: 3a51 1bbd 1e07 053d 14c7 c33c afbe 0fbd
00000030: 8f22 2bbc 3912 9a3c aa08 533d 9d85 3c3d
00000040: 0fa7 b03c 6ef9 edba 23f4 383d 3d73 3f3c
00000050: 96de d93c 4659 f73c c2e2 053b abb1 c93c
00000060: 54cf c5bc 11a3 073d 4c37 2b3c 8935 203c
00000070: eb8b 123d 5337 ffbc ed85 053c cc20 5e3d
00000080: 7ec9 20bd 2e7b c23c a6ee c5bb 553a 09bd
00000090: e376 d5bb 99ad 28bc 1ca4 093d 7c51 18bc
000000a0: df7c 613d 81f3 9e3c 68bc a03b 2d60 adbc
000000b0: 2a66 5e3d 5f0e 4cbc 15a1 3c3d eb7c b23c
000000c0: dd34 14bd 0cf1 40bd d3ee 1cbd 9591 1ebd
000000d0: 484a 45bd 194b 4eba be3c 25bb 69c8 393d
000000e0: d7e3 3fbd 91ff b23c 6645 ec3c 45ca 33bd
000000f0: d6aa 19bd 151f 4abd cce7 6bbd 7e29 15bd
00000100: a90a ac3c 81d2 64bd 8ff4 dc3b 565c 68bd
00000110: afec 93bc cbd7 dabc 21ae a0bc f859 cabc
00000120: 6230 38bd 8d72 97bc 442b 043d b1fa 553d
00000130: 6b3d 4ebc 7a72 07bd 319f 6dbd 6e25 06bd
00000140: 000e 8fbc d2d8 343c 4bee fc3c 1fd5 39bd
00000150: 9005 033d c345 333d 8813 ef3c 441c 8fbc
00000160: 7914 213d 1568 5c3c 60fb f93c e354 fb3c
00000170: a10e 2d3c 26eb f4bb 85cc 453c 2484 373b
00000180: 152f 913b 7e76 f83c d690 583b 8858 173d
00000190: aa8d a43c c16c e0ba 00ec 1a3d 374c 2d3d
000001a0: 610a 7cbc 1a03 8ebc 9a72 8bbb 2034 44bc
000001b0: db26 573b da52 8dbc 0bb3 cabc f77e 6dbc
000001c0: 2119 0dbd 1ef0 1abd 1a10 123d 329c 00bd
000001d0: c70b e9bc 187d bd3c 63ab 163c dec3 17bd
000001e0: 3585 cbbc 4700 67bd 4a1b c73c 38fd 5b3d
000001f0: 3c25 2c3d db16 2b3b 4f10 c5bc b1f3 56bb
00000200: 2a71 6fbc efda 513c cf10 2bbd 2c25 173d
00000210: ff3e 49bd 6a4c a8bc 308a f03c c955 ccbc
00000220: 6509 03bd 9d89 383c c215 e03c 9633 703d
00000230: 7424 f63c aa4f 8ebc 25e0 183b 6948 ca3c
00000240: e972 37bd b951 12bd 08f9 3dbd 2d29 0f3c
00000250: 8727 05bc 94ac 10bd b1d9 203d 5b29 e33c
00000260: 49f2 01bd ab9d cc3c e64a 2dbd 887e 5fbc
00000270: f274 12bd 6b93 8ebb 1648 b03c 5795 36bd
00000280: ce4d 9ebd a225 18bd 6286 b83c 0e7d 42bc
00000290: d180 13bd 9211 2cbd 346e 183d 728d 663c
000002a0: 3f3b 173d f5da 3abd 4f16 313c 5087 733c
000002b0: eef5 cb3c f022 a33c 8ff3 0cbd 2e6b 103d
000002c0: 33c6 013d f979 363d 537b 683c 7420 493d
000002d0: 9d26 31bd 44ff 4abd 42ee 563d 3918 d4bc
000002e0: b9f1 d8bc 5690 dc3c 61f1 333d e949 13bd
000002f0: a2b7 4e3d 8fc8 db3c faf6 94bc 51c5 ae3c
00000300: e8cc c83c 9731 fe3c 2d6c 7b3c b044 86bd
00000310: b130 bdbb 576e 07bd 814e 94bc a447 adbb
00000320: e7dd 793c 9aa4 86bd f9cf 7abd 1978 78bc
00000330: 38f0 373d 05e1 703c 4e9c c4bc 1885 27bd
00000340: 3720 73bd 66e5 aa3c f262 4fbd 6e4a 18bc
00000350: da97 22bd f047 06bd c9d5 473d 7f68 00bc
00000360: 9587 823c 78e1 193d 0fae 833c 6641 483d
00000370: caa1 5c3b a7f8 033c f2d6 8abb 2f2a 67bd
00000380: 7db4 02bd 2984 353b d139 56bc 8975 28bd
00000390: c728 4d3b 8c7f 7a3c 8df7 553c 7b9b 86bd
000003a0: da00 a6bc b7d0 d03c 7351 143d 38c3 2abc
000003b0: c08f ab3c 6036 0c3d 68d6 883c 7b26 713c
000003c0: b911 883b 4e19 1cbc ce02 2ebd 76bd b93b
000003d0: 4b1d 7bbd 6bc1 afbc a4bb f03b 5339 163d
000003e0: 4b46 433d 9deb 66bd b819 febc af92 cf3b
000003f0: a18e aabc 6e6d 523b f45a ff3a da9e 8ebc

sequential_3/conv2d_9/Conv2D_bias f4 [48]
0.0008119295 0.010254485 -0.0023161792 -0.0027688688 -0.0027824624 0.0036924507 0.0023057892 -0.0014023533
0.0026191964 -0.004224154 0.0049405275 0.0050244248 -0.0064493404 0.0070164073 -0.0035209383 0.004106595
-0.00654392 0.0022154439 0.00404309 -0.0032467232 0.008264546 0.0020847558 0.006439248 -0.0060210954
-0.005798679 0.007711452 -0.0026477645 0.0070247655 0.0049012387 -0.00022004546 0.0029390398 -0.004746583
0.0014927895 -0.0031011794 -0.003238853 -0.0067970455 0.007002618 0.0016029634 0.0008694521 0.0012497795
0.005818254 -0.0013000573 0.000709143 -0.0067741307 -0.003971804 -0.00375836 -0.0036597254 -0.008598354
00000000: abd7 543a 6d02 283c 0acb 17bb e975 35bb
00000010: f959 36bb 0bfd 713b b91c 173b 2bcf b7ba
00000020: d3a6 2b3b c66a 8abb 26e4 a13b eea3 a43b
00000030: fd54 d3bb e4e9 e53b 8bbf 66bb 9e90 863b
00000040: 616e d6bb fb30 113b e67b 843b fac6 54bb
00000050: 0568 073c 66a0 083b 5400 d33b 9c4c c5bb
00000060: d802 bebb 59b0 fc3b 1e86 2dbb 0130 e63b
00000070: 929a a03b 01bc 66b9 e89c 403b 3989 9bbb
00000080: b4a9 c33a 283d 4bbb f042 54bb c0b9 debb
00000090: 3876 e53b 871a d23a f1eb 633a a4cf a33a
000000a0: 0da7 be3b af66 aaba c8e5 393a 87f9 ddbb
000000b0: e825 82bb d14e 76bb 01d8 6fbb 1ce0 0cbc

sequential_3/dense_5/MatMul/ReadVariableOp/transpose f4 [64, 2400]
-0.023060467 0.029518528 -0.018086739 0.05769811 -0.06341906 -0.0004414522 0.044878963 0.006891468
0.043050546 0.0049674124 0.046100624 0.015242638 0.0009581532 0.05308355 0.012544512 0.028195553
-0.005283226 0.023790738 0.02386597 -0.0016808059 -0.029837562 0.08722261 0.03375751 0.04296959
-0.014702806 -0.06787906 -0.059823588 -0.006478235 0.010037292 0.0036460762 -0.0077029252 -0.04017212
0.071022905 -0.0073098605 0.036191296 0.025340488 -0.047618013 -0.008233045 -0.04251719 -0.031810746
0.045872185 0.016878676 0.027523326 0.10247571 -0.044097047 -0.04766476 0.07265927 0.0009255419
-0.044831827 -0.037880212 0.018614862 0.0036897883 -0.097483784 0.0516414 0.016169585 -0.055215668
-0.018105445 -0.03716556 0.017767373 0.022946374 -0.0357003 -0.005488342 -0.037733972 -0.026524287
-0.02090373 0.10238141 0.002361455 0.0010175855 0.030665958 0.009994536 -0.0051295008 0.039299488
0.0025494723 0.024383336 0.00017343063 0.10048934 0.006068204 -0.0017781613 -0.0035914553 -0.029474957
0.08181962 -0.036274392 -0.043382972 0.012133841 0.0011308544 0.06761503 0.0082170805 -0.0011930795
0.031270806 0.009514876 -0.037305985 0.0415343 0.0058179502 -0.025085926 0.04437607 0.05232734
-0.010024177 -0.034765895 0.032311015 0.030144041 -0.043539423 0.010528553 0.06603481 -0.039191596
-0.021174423 0.02010387 0.024397397 0.0066964254 -0.011776955 -0.042657316 0.018845243 0.04401359
0.045513425 0.09039133 0.02878458 0.041733935 0.059597097 0.039049312 0.108915694 -0.014937015
0.024148922 0.008070456 -0.04549172 0.07597239 0.018100884 0.006241528 0.063540466 -0.0149074355
0.040928517 -0.016463086 0.050248586 0.072753884 -0.037777133 -0.025656719 -0.022391364 0.0070746653
0.007899481 -0.014194246 -0.045652166 -0.002500999 0.028557004 0.0080567915 0.04242862 8.041652e-07
-0.040168084 -0.0065258523 0.042956937 0.023590907 0.08668425 0.03177546 0.025111496 0.058678508
0.038576163 0.020282425 -0.03546682 -0.022372594 0.0057360046 -0.013269567 0.027540412 0.0061471043
-0.020752752 0.060004637 0.04217083 -0.017931158 -0.008994649 0.0019535318 0.041060634 0.0008456155
-0.0067029153 0.008592997 0.01721537 0.01620102 -0.019780967 0.05297856 0.017659318 -0.02176414
0.072439365 0.026970088 -0.018138641 0.14927374 -0.006055808 0.017601142 -0.05515413 -0.08077986
0.07818822 -0.00984743 -0.02546391 -0.0397361 0.05562289 0.04863374 0.042925324 0.07385997
0.022328414 -0.011384748 -0.031459793 0.08134462 0.07228621 0.066505685 -0.041611154 0.0028421767
0.020941682 -0.013994016 -0.06944534 0.005137003 0.025166811 -0.02344138 -0.017364496 -0.038984228
0.0680714 0.1352337 0.00538488 -0.020797437 -0.061412748 0.0058222637 0.004953626 -0.04706335
-0.031481355 -0.011523541 0.031490214 0.056575567 0.025682501 -0.028854659 -0.03396289 -0.034988675
-0.025888523 -0.034242664 0.04404292 0.09796006 0.022078736 -0.0010434119 -0.04300184 -0.0615643
0.06725155 -0.023340382 -0.0024538713 0.016266905 0.02086155 -0.008381678 0.009994837 0.008476514
-0.03230869 -0.004327238 0.029499536 -0.03404979 0.045276277 -0.056847095 0.00057617587 0.025500491
-0.09879457 -0.018459214 -0.023715882 -0.0035943626 0.052099757 -0.029639702 -0.027685938 0.031413622
00000000: 4ee9 bcbc d7d0 f13c a42a 94bc da54 6c3d
00000010: dae1 81bd b672 e7b9 01d3 373d d3d1 e13b
00000020: c555 303d adc5 a23b 02d4 3c3d 42bc 793c
00000030: 932c 7b3a 236e 593d 7f87 4d3c 5cfa e63c
00000040: e91e adbb cbe4 c23c 9182 c33c 7d4e dcba
00000050: e76d f4bc c5a1 b23d 5145 0a3d e100 303d
00000060: 0ae4 70bc 2d04 8bbd 9409 75bd 6047 d4bb
00000070: 7473 243c 02f3 6e3b d268 fcbb 858b 24bd
00000080: 7574 913d 8e87 efbb 533d 143d db96 cf3c
00000090: 1b0b 43bd e5e3 06bc 8126 2ebd fc4b 02bd
000000a0: 79e4 3b3d 2645 8a3c 9978 e13c c9de d13d
000000b0: 1b9f 34bd 203c 43bd 62ce 943d 11a0 723a
000000c0: 94a1 37bd 4828 1bbd 327e 983c 60d0 713b
000000d0: 94a5 c7bd ef85 533d 1476 843c d329 62bd
000000e0: df51 94bc ea3a 18bd e28c 913c 09fa bb3c
000000f0: 7a3a 12bd 8dd7 b3bb f08e 1abd 7649 d9bc
00000100: 4d3e abbc 58ad d13d a4c2 1a3b 8160 853a
00000110: 2d37 fb3c 1fc0 233c 5f15 a8bb 80f8 203d
00000120: 0c15 273b 90bf c73c eeda 3539 5bcd cd3d
00000130: c9d7 c63b 3111 e9ba 9f5e 6bbb 7775 f1bc
00000140: 0c91 a73d 7594 14bd 58b2 31bd 05cd 463c
00000150: 2d39 943a c079 8a3d efa0 063c 1b61 9cba
00000160: d115 003d 48e4 1b3c 29ce 18bd df1f 2a3d
00000170: 81a4 be3b 0081 cdbc afc3 353d 3155 563d
00000180: 723c 24bc af66 0ebd 8e58 043d a3f0 f63c
00000190: 6556 32bd f47f 2c3c 423d 873d 5e87 20bd
000001a0: fc75 adbc dfb0 a43c 0ddd c73c b06d db3b
000001b0: 21f4 40bc 70b9 2ebd 5761 9a3c 9847 343d
000001c0: 496c 3a3d 171f b93d a4cd eb3c 34f1 2a3d
000001d0: 161c 743d 2cf2 1f3d 310f df3d 62ba 74bc
000001e0: f6d3 c53c f239 043c 8755 3abd 6a97 9b3d
000001f0: 4e48 943c bb85 cc3b 8121 823d 513e 74bc
00000200: a9a4 273d 98dd 86bc 76d1 4d3d fdff 943d
00000210: 32bc 1abd 0a2e d2bc 186e b7bc 98d2 e73b
00000220: d36c 013c fc8e 68bc c4fd 3abd cde7 23bb
00000230: 61f0 e93c a200 043c a2c9 2d3d d0dd 5735
00000240: 4a87 24bd d1d6 d5bb 9df3 2f3d b841 c13c
00000250: 8387 b13d fc26 023d a0b6 cd3c e058 703d
00000260: 0a02 1e3d 5427 a63c a845 11bd bb46 b7bc
00000270: 18f5 bb3b 9968 59bc 6e9c e13c a66d c93b
00000280: ad01 aabc 6cc7 753d 52bb 2c3d 5de4 92bc
00000290: 4b5e 13bc d306 003b 322f 283d 4cac 5d3a
000002a0: 21a4 dbbb a4c9 0c3c 3f07 8d3c 00b8 843c
000002b0: b20b a2bc 0c00 593d 46aa 903c b64a b2bc
000002c0: 175b 943d 60f0 dc3c 7d97 94bc 37db 183e
000002d0: cd6f c6bb 4530 903c 4ce9 61bd e96f a5bd
000002e0: 2521 a03d 1d57 21bc b199 d0bc 52c2 22bd
000002f0: d4d4 633d 2c34 473d 77d2 2f3d e543 973d
00000300: 14ea b63c 1887 3abc fcdb 00bd 0298 a63d
00000310: cb0a 943d 2234 883d 7570 2abd d043 3a3b
00000320: e48d ab3c 2847 65bc 5c39 8ebd 4e54 a83b
00000330: a12a ce3c 2308 c0bc fd3f 8ebc edad 1fbd
00000340: 0569 8b3d b47a 0a3e a673 b03b 635f aabc
00000350: ef8b 7bbd b0c8 be3b 0752 a23b 80c5 40bd
00000360: 98f2 00bd 3ccd 3cbc e2fb 003d c8bb 673d
00000370: 1c64 d23c 9b60 ecbc ac1c 0bbd 4950 0fbd
00000380: 2b14 d4bc 0942 0cbd 5966 343d 499f c83d
00000390: 77de b43c 18c3 88ba b322 30bd d92a 7cbd
000003a0: 2ebb 893d 5434 bfbc 21d1 20bb 2c42 853c
000003b0: d7e5 aa3c 4e53 09bc 63c1 233c 14e1 0a3c
000003c0: 1e56 04bd 81cb 8dbb 03a9 f13c cb77 0bbd
000003d0: 9e73 393d 80d8 68bd 820a 173a 68e6 d03c
000003e0: cf54 cabd c737 97bc cf47 c2bc 668f 6bbb
000003f0: 8e66 553d f6ce f2bc 9fcd e2bc 92ab 003d

sequential_3/dense_5/MatMul_bias f4 [64]
-0.011777164 -0.02213094 -0.014940579 0.0016832252 0.0019073153 0.031355474 0.022235505 0.0005541262
0.037516616 -0.0011587455 0.019805595 0.007102327 -0.0070965216 0.0038111 -0.0049670865 0.019950733
0.017818922 0.03581032 0.01481715 -0.016085243 0.013061929 -1.4623101e-05 0.009086817 -0.0116737485
0.020726547 0.02161312 0.03562064 0.014791623 -0.0005185468 -0.011084514 -0.0030437044 0.02903124
-0.013266593 0.035739984 -0.0130969165 0.012767515 -0.0019550645 0.0177622 0.012538011 0.023412978
0.009975448 0.032620154 0.005943254 -0.0044751866 -0.017177721 0.003642814 -0.0063111363 -0.0060839313
0.0015133211 -0.011301208 0.008160367 -0.005931453 0.0016315848 -0.0046989913 0.023648787 -0.0060213627
0.010322362 -0.018748568 0.005497887 0.028914342 0.0003796709 0.021986641 0.025293779 0.020638065
00000000: 02f5 40bc f24b b5bc 55c9 74bc aa9f dc3a
00000010: e2fe f93a 996e 003d 3c27 b63c c842 113a
00000020: 06ab 193d 0ce1 97ba 583f a23c a3ba e83b
00000030: f089 e8bb a6c3 793b f1c2 a2bb b86f a33c
00000040: fdf8 913c d8ad 123d a2c3 723c 33c5 83bc
00000050: b301 563c be55 75b7 dfe0 143c 4043 3fbc
00000060: b8ca a93c ff0d b13c f3e6 113d 9058 723c
00000070: 16ef 07ba d29b 35bc e378 47bb ecd2 ed3c
00000080: 205c 59bc 1764 123d 7394 56bc d72e 513c
00000090: 8a20 00bb 0982 913c 3b6c 4d3c 93cc bf3c
000000a0: 1070 233c b69c 053d a1bf c23b 96a4 92bb
000000b0: 4bb8 8cbc 47bc 6e3b a6cd cebb b75b c7bb
000000c0: a15a c63a b428 39bc 0fb3 053c a25c c2bb
000000d0: e7da d53a fff9 99bb 1abb c13c da4e c5bb
000000e0: 201f 293c 9996 99bc 9e27 b43b c5dd ec3c
000000f0: 910e c739 541d b43c e634 cf3c 2911 a93c

sequential_3/dense_6/MatMul/ReadVariableOp/transpose f4 [5, 64]
-0.005042436 0.22121781 0.120538846 0.12057784 -0.28461474 -0.14001781 0.27541545 0.21669985
-0.1576076 0.2358912 -0.33746138 0.16784409 0.052528985 -0.3016671 -0.12975594 0.2343396
-0.2733195 -0.17374751 -0.19982441 0.05245651 -0.3385402 -0.08680398 0.15140547 0.27154088
-0.17551215 -0.3390145 -0.33733624 -0.26423654 -0.3049234 0.27790344 -0.23837996 -0.13798265
0.033132594 -0.2764873 0.16400197 -0.0863679 -0.33157504 -0.21745937 -0.20447473 0.032381244
0.1437696 -0.17299376 0.27948812 -0.030179968 0.12888333 0.09558592 0.05949749 -0.23630713
-0.35887593 0.27238727 0.02306561 0.08070568 -0.27859148 0.0867668 -0.3144809 0.098466516
-0.15933532 0.16073315 -0.08995031 -0.365818 -0.0854463 -0.18805833 -0.30487874 -0.30769157
0.029702267 -0.09342738 0.11420609 0.12510653 0.020346696 -0.28300977 -0.060987614 -0.33184808
-0.030772628 -0.065531336 0.2083114 0.20546605 -0.36487782 0.010858027 0.17301103 -0.084296405
0.26367906 -0.36223292 -0.11871042 -0.22749524 0.03687685 0.086805515 -0.42838258 -0.1948135
-0.069188036 0.02982578 0.025615513 0.034413148 -0.25659156 -0.2180661 -0.26576635 -0.050076213
0.082881644 -0.14366007 -0.015561656 -0.25020808 0.119084775 -0.2715504 0.15919064 -0.0012145386
-0.16047052 -0.2347895 0.30867043 0.22092026 0.09608165 0.018032743 -0.3293838 0.1281212
0.17410593 0.08209381 0.21703233 0.116820045 -0.33040512 0.19441731 -0.29485008 -0.3315406
0.07291495 -0.09973932 0.31532192 0.16999824 -0.31636947 -0.317226 -0.28749657 0.19546585
-0.26962262 -0.20470077 -0.26381072 0.07986293 0.11512603 0.30670196 0.29581898 -0.05087753
0.25780714 -0.10710863 0.23336506 0.12407461 -0.09054652 -0.23067194 -0.22563335 0.2590732
0.26999384 0.16146964 0.2481386 -0.11511349 0.023027008 0.081561476 0.06749958 0.27232504
0.33792523 0.05203155 0.016648589 0.20098975 -0.22546107 -0.22054555 -0.19265275 0.21134621
-0.3011251 0.14655359 -0.32498455 -0.08110569 -0.23395792 0.29214606 0.13712212 0.31738403
0.10092298 0.11057622 0.23350954 -3.9276638e-05 -0.22825955 -0.11865864 -0.29644656 -0.19176829
-0.21888325 -0.11943256 0.08453106 -0.36995396 0.04369883 -0.078976184 0.06720958 -0.20520844
0.12879932 0.023283433 -0.033301827 0.120548144 -0.17836657 0.20020318 0.33312598 0.24843797
-0.045775164 0.21348742 0.20894712 -0.033603773 -0.26460555 0.15485863 -0.078040645 -0.09765548
0.25572804 0.0261898 0.23133305 -0.14028095 0.18336333 -0.2842867 0.23119463 0.0017368759
-0.27433518 -0.22714676 0.32194784 -0.06300632 -0.028344361 0.31803498 0.050914004 0.15542497
0.28499174 -0.2257838 -0.20903908 0.15064313 0.115952544 0.05023889 0.32810575 -0.25903884
-0.23078997 -0.26487243 -0.25935674 -0.32623488 0.16172025 0.307768 0.12539059 0.1802661
-0.1281878 -0.23117301 -0.14962128 0.32062888 0.13666114 -0.2751545 0.23120607 0.19009355
0.2627509 0.2086734 -0.119320825 -0.27765474 0.17861542 -0.3250523 -0.23108825 0.19368918
-0.04232794 -0.14588858 -0.17133525 -0.19700725 0.17834644 -0.18418992 0.120669 0.012683519
00000000: 053b a5bb ec86 623e 12dd f63d 84f1 f63d
00000010: 06b9 91be d460 0fbe 4103 8d3e 91e6 5d3e
00000020: e363 21be 768d 713e bdc7 acbe 52df 2b3e
00000030: a228 573d 1c74 9abe bede 04be b8f6 6f3e
00000040: 89f0 8bbe deea 31be c59e 4cbe a3dc 563d
00000050: 2455 adbe 49c6 b1bd 090a 1b3e 6807 8b3e
00000060: 75b9 33be 4f93 adbe 56b7 acbe 034a 87be
00000070: eb1e 9cbe 5c49 8e3e e019 74be 534b 0dbe
00000080: 0bb6 073d be8f 8dbe 22f0 273e a7e1 b0bd
00000090: 34c4 a9be abad 5ebe d361 51be 32a2 043d
000000a0: 5738 133e 4725 31be 1119 8f3e fb3b f7bc
000000b0: fef9 033e 8dc2 c33d a4b3 733d 7ffa 71be
000000c0: 96be b7be 5876 8b3e 17f4 bc3c 0549 a53d
000000d0: 8ba3 8ebe cbb2 b13d a403 a1be d0a8 c93d
000000e0: cc28 23be 3b97 243e de37 b8bd 7f4c bbbe
000000f0: 78fe aebd 5d92 40be 1119 9cbe c089 9dbe
00000100: 2b52 f33c db56 bfbd e2e4 e93d ed1b 003e
00000110: 1dae a63c a8e6 90be 26ce 79bd fee7 a9be
00000120: e116 fcbc 4b35 86bd 954f 553e b165 523e
00000130: 44d1 babe dee5 313c ce29 313e 98a3 acbd
00000140: f100 873e 9876 b9be 731e f3bd 83f4 68be
00000150: 2e0c 173d 17c7 b13d f654 dbbe 317d 47be
00000160: 75b2 8dbd 3255 f43c a0d7 d13c cdf4 0c3d
00000170: f85f 83be b84c 5fbe 8712 88be b71c 4dbd
00000180: dabd a93d a01b 13be 51f6 7ebc 461b 80be
00000190: b8e2 f33d a708 8bbe df02 233e 2731 9fba
000001a0: 6252 24be a96c 70be 0d0a 9e3e ec38 623e
000001b0: 75c6 c43d 67b9 933c fea4 a8be 3432 033e
000001c0: d348 323e cd20 a83d b93d 5e3e 593f ef3d
000001d0: dc2a a9be 5515 473e 97f6 96be b1bf a9be
000001e0: 6f54 953d 2144 ccbd e071 a13e 0514 2e3e
000001f0: 2efb a1be 726b a2be c032 93be 3328 483e
00000200: fa0b 8abe 149d 51be 3312 87be 2d8f a33d
00000210: 32c7 eb3d 0a08 9d3e 9675 973e f564 50bd
00000220: 4cff 833e c55b dbbd 40f7 6e3e d41a fe3d
00000230: 7470 b9bd 4435 6cbe 6e0c 67be 3ea5 843e
00000240: a23c 8a3e 4c58 253e 0c18 7e3e 9fc0 ebbd
00000250: 23a3 bc3c b409 a73d 383d 8a3d 306e 8b3e
00000260: 8904 ad3e 091f 553d 9f62 883c 42d0 4d3e
00000270: 44df 66be b1d6 61be c346 45be 246b 583e
00000280: 122d 9abe 2512 163e 6064 a6be bd1a a6bd
00000290: aa92 6fbe 2b94 953e be69 0c3e 2980 a23e
000002a0: b5b0 ce3d c975 e23d 201d 6f3e f8bc 24b8
000002b0: dfbc 69be 4d03 f3bd d8c7 97be e85e 44be
000002c0: ee22 60be 0f99 f4bd 9f1e ad3d 9b6a bdbe
000002d0: 8bfd 323d 44be a1bd 2da5 893d 2922 52be
000002e0: f8e3 033e e6bc be3c 7f67 08bd f2e1 f63d
000002f0: baa5 36be 1002 4d3e 7d8f aa3e 8666 7e3e
00000300: bd7e 3bbd 729c 5a3e 3cf6 553e 1ca4 09bd
00000310: 617a 87be 4393 1e3e c6d3 9fbd 99ff c7bd
00000320: c9ee 823e fe8b d63c 92e2 6c3e cfa5 0fbe
00000330: 99c3 3b3e 078e 91be 49be 6c3e e2a7 e33a
00000340: a975 8cbe 2999 68be 59d6 a43e 7509 81bd
00000350: 6f32 e8bc 7bd5 a23e 348b 503d b927 1f3e
00000360: 70ea 913e de33 67be 570e 56be 3142 1a3e
00000370: 8778 ed3d 4bc7 4d3d 7afd a73e bda0 84be
00000380: 3554 6cbe 5c9d 87be 68ca 84be 4208 a7be
00000390: fe99 253e c493 9d3e 6466 003e ad97 383e
000003a0: aa43 03be 9eb8 6cbe 5236 19be 7829 a43e
000003b0: e6f0 0b3e 0de1 8cbe 49c1 6c3e e2a7 423e
000003c0: 4987 863e 7bae 553e 7a5e f4bd c328 8ebe
000003d0: f6e6 363e 416d a6be 66a2 6cbe 7556 463e
000003e0: 1060 2dbd d163 15be 8272 2fbe 45bc 49be
000003f0: 73a0 363e 489c 3cbe 4f21 f73d 89ce 4f3c

sequential_3/dense_6/MatMul_bias f4 [5]
-0.19099838 -0.07584134 -0.018675987 -0.028100273 0.102420956
00000000: 1495 43be b452 9bbd 62fe 98bc 8b32 e6bc
00000010: 14c2 d13d
