Machine-Learning/HeartSoundTrainedFiles/updated_heart_model.h5.tflite (tflite, 968348 bytes, 10 tensors)

sequential/conv2d/BiasAdd/ReadVariableOp f4 [24]
000000 f7 5e 4c 3a f2 2d 51 bc f8 66 b2 bc 08 15 e6 bb
       0.0007796133 -0.012767302 -0.021777615 -0.00702155
000010 1f cf a4 bb 4f 53 06 bc 12 eb d4 bb 37 0f a4 bb
       -0.0050295736 -0.008198573 -0.006497749 -0.0050066966
000020 13 d7 0c 3c ff 77 c3 bc bd df 5b bb 2c 30 61 bb
       0.0085962 -0.02386093 -0.0033550106 -0.0034360988
000030 84 f2 c4 bb 13 96 96 bb af 20 c9 bb 5d bd b3 3b
       -0.0060103554 -0.004595527 -0.0061379294 0.0054852203
000040 d4 2c aa 3b 95 3e 85 bb 83 f2 00 ba 21 b0 f6 bc
       0.005193332 -0.0040662983 -0.00049189496 -0.030113282
000050 2c 72 35 3c d9 72 2d bc 71 f6 e2 bb 51 db 54 bb
       0.011074584 -0.010586464 -0.0069263508 -0.0032479356

sequential/conv2d_1/BiasAdd/ReadVariableOp f4 [48]
000000 ea aa 0c bc 7e 07 78 bc 37 2d 9c bb 86 8c c9 bb
       -0.008585671 -0.015138505 -0.004766132 -0.006150785
000010 bc 6e 64 bb bc d1 59 bb 6e 43 8b 3b 3d 31 10 bb
       -0.0034856042 -0.0033236584 0.0042499816 -0.0022002005
000020 88 d9 9e bb e0 b8 c7 3b a4 40 39 bc 65 e0 e3 bb
       -0.004847709 0.006095037 -0.011306915 -0.00695424
000030 92 1a d3 bb 21 d8 90 3c c0 9c 36 3c 76 a3 96 3b
       -0.0064423764 0.017681183 0.011145771 0.004597123
000040 df f5 7c bc 0b 19 16 bc e6 46 87 bc ba 37 a2 bc
       -0.01543948 -0.009161244 -0.0165133 -0.019801963
000050 19 8e a5 3c c4 f5 2d 3a 71 37 2f 3c 07 91 8c bc
       0.020209359 0.0006636048 0.010694371 -0.017158998
000060 3c 03 7b bc 22 55 a5 bb 08 7b 15 bc 33 56 8b bc
       -0.015320595 -0.005045549 -0.009123571 -0.017008876
000070 b6 65 66 bb 5b 83 3f bc 47 a5 14 bc e6 f9 21 bc
       -0.003515584 -0.011689032 -0.009072608 -0.009886241
000080 9f 20 cc 3a 53 c8 02 bb cd 62 1d bc 4a fb 53 bc
       0.0015573687 -0.0019955828 -0.0096060755 -0.01293833
000090 e1 94 c9 3b 57 85 ef bb 0b 87 74 bb f3 32 79 bb
       0.006151781 -0.0073095965 -0.0037311937 -0.0038024753
0000a0 33 83 c1 3b 3d 6e 33 3b 21 b8 c0 3c a0 8c bf bb
       0.0059055327 0.002737894 0.0235253 -0.005845621
0000b0 14 38 42 ba 0e 6b 18 3c 2b 68 04 bb 29 fe 90 ba
       -0.0007408869 0.009302868 -0.002020369 -0.0011062074

sequential/conv2d_2/BiasAdd/ReadVariableOp f4 [48]
000000 18 62 72 3a 0f cc 18 bb d1 a2 ae 3a db 53 1f 39
       0.00092461845 -0.0023314988 0.001332367 0.0001519466
000010 e2 9e 5c bb 15 8a b1 3b 06 79 22 3c d9 bc 94 bb
       -0.0033664037 0.005418072 0.00991655 -0.004539114
000020 a9 56 4f bb 05 63 08 bc 87 dc b3 ba fa 09 73 3b
       -0.0031637347 -0.008324389 -0.0013722338 0.0037084804
000030 df c5 3c 3b 19 54 93 3a 38 03 69 bb d4 e3 ff ba
       0.0028804464 0.0011240273 -0.0035554897 -0.0019522854
000040 d2 44 4d bc 98 a3 42 3b 96 df 8e 3b 7a cb 93 3b
       -0.012528615 0.002969956 0.0043601496 0.0045103403
000050 be b1 4e bb 5e 6d 46 b7 83 bf 4c 3b 82 31 21 bc
       -0.0031539048 -1.1827184e-05 0.003124208 -0.009838464
000060 92 50 e6 bb 52 1f 3d bb 21 43 6d bb b5 99 81 bb
       -0.0070286477 -0.002885778 -0.0036203342 -0.003955091
000070 57 99 9b 3a d3 ea 68 bb 85 4f 64 bb 30 2b 8d bb
       0.001187126 -0.0035540357 -0.0034837436 -0.004308127
000080 4a 18 e5 3b 46 96 44 b9 29 fc 04 bb 21 89 03 3c
       0.006991421 -0.00018747998 -0.00202919 0.0080283
000090 d5 c4 b0 3b a4 b8 09 bb c1 74 81 bb 22 dd c6 38
       0.005394558 -0.0021014595 -0.0039506857 9.482565e-05
0000a0 46 6b 1b 3c a3 17 70 bb e8 9f 39 3b 4a e7 1a bb
       0.009486025 -0.0036635182 0.0028324071 -0.0023636394
0000b0 2c 82 81 3b 80 8c 9c 3b 6b 7f b6 bb 7e 51 08 bc
       0.0039522853 0.004777491 -0.0055693886 -0.0083202105

sequential/conv2d/Conv2D f4 [24, 5, 5, 1]
000000 c2 05 8e bd ac 7a 28 3d 69 c2 33 3d f4 a2 ca bd
       -0.06934692 0.041132614 0.043886576 -0.09894362
000010 d5 e4 90 bd d5 40 25 bc 6f c6 32 bd 04 d1 db bd
       -0.07074896 -0.010086258 -0.043646272 -0.10733226
000020 98 05 a3 bd 74 f4 a7 3d b7 09 f7 3c 40 8c cb bd
       -0.07960051 0.082009226 0.030156 -0.0993886
000030 74 b1 a9 3d 6d 89 88 bd 89 62 e9 bb 78 65 8a bd
       0.082857996 -0.06666837 -0.007122342 -0.06757635
000040 61 2d 7f bc c6 a4 df 3d 06 08 a0 3d dc c7 e3 bc
       -0.015574784 0.109201 0.0781403 -0.027805261
000050 72 49 05 3e 77 5a 8c 3d 90 f5 8d 3d 4c c2 a8 3d
       0.13016298 0.06853192 0.06931603 0.08240184
000060 1c 73 9c 3d 54 47 91 3c 36 81 bf bd b2 79 06 3c
       0.07639143 0.017734207 -0.09350817 0.008207725
000070 08 c8 50 3b 0d 02 b6 bd 0c 05 8d 3d 82 e6 a1 bb
       0.003185751 -0.0888711 0.06885728 -0.0049408088
000080 2f 4b a1 3d 4a f2 2b bd 3d 91 9a 3d 46 d6 4d 3b
       0.07875668 -0.04197911 0.07547233 0.0031408234
000090 09 e1 ce 3c 13 4f aa 3c 78 79 a4 bd ee 81 c1 bc
       0.02525379 0.020789659 -0.08030981 -0.023621526
0000a0 22 c3 35 bd 52 2b e2 bc 53 98 d0 bd 58 d0 84 3d
       -0.044375546 -0.027608547 -0.101853035 0.06485051
0000b0 ad cd c4 bd a5 a3 df bd 18 a3 bf bd bb c0 90 3c
       -0.09609542 -0.109198846 -0.093572795 0.017670026
0000c0 67 50 ec bd 65 56 70 3b 63 48 a9 bb 34 73 67 bb
       -0.11538773 0.003667259 -0.0051661 -0.003531647
0000d0 ba 30 84 3d e1 1e 86 bb 9d 13 59 bb bf e3 1f bd
       0.06454606 -0.0040930365 -0.0033123263 -0.039035555
0000e0 ba 37 b9 3c 08 22 a7 3c a9 9d 8f bd ba d3 cd 3d
       0.02260958 0.02040197 -0.07012493 0.10050149
0000f0 70 c7 f6 3d 25 bf c8 3d 76 fa e1 3d ad 8f 93 3d
       0.120497584 0.09802083 0.110341 0.07205138
000100 88 a1 a0 3d 8b 06 8f bc 46 91 a5 3c 99 e0 75 bd
       0.0784331 -0.017459175 0.020210873 -0.060028646
000110 82 86 e1 bc 65 07 e3 bd c2 bf a3 bd fc 44 4a 3d
       -0.027529959 -0.11085395 -0.07995559 0.049382195
000120 4b ac 4c bd 41 1c a5 bd 4f 21 09 bd bc c9 dc 3c
       -0.049969 -0.0806203 -0.03347903 0.026951663
000130 01 e9 cf 3d d3 ab b6 bc d6 36 21 bc c6 ec d8 3c
       0.10151864 -0.022298729 -0.009839734 0.02648009
000140 0e 3a 10 bd 3d 1f 9f bb d7 80 84 bd 6a 45 d2 bd
       -0.035211615 -0.004856019 -0.06469887 -0.10267146
000150 c3 db 26 3d 89 4c 6b bc 56 88 8e bc 6e dc 54 bd
       0.040736925 -0.014361509 -0.017398994 -0.05196803
000160 c0 9e af 3d c3 6a 5f 3c 6d 14 ea bd 84 c7 87 bd
       0.08575201 0.013636294 -0.11429677 -0.066298515
000170 70 b3 e5 3c 96 b7 00 be 51 3e f3 3c df ef 52 3d
       0.028039664 -0.12570032 0.0296928 0.05149829
000180 7d c5 b4 3d 44 83 d3 bd 62 24 5f bd 44 30 23 bd
       0.088267304 -0.10327771 -0.054478057 -0.03984095
000190 5a d8 2a 3d a5 56 d3 3c a0 cf 72 bd 55 f3 bb 3c
       0.041710235 0.025798151 -0.059280038 0.022943178
0001a0 9f 7b 90 3c f3 f5 e7 bb ca 0d 97 bd 4c 71 71 3d
       0.017637072 -0.00707888 -0.07375677 0.05894594
0001b0 d7 94 c1 3d e0 4b 8c 3d 38 82 8c bc 63 3e e0 bb
       0.09452217 0.068504095 -0.017151937 -0.0068433746
0001c0 0b 9a ba bc b5 f2 81 3c 46 b7 92 3d a8 3e 84 3d
       -0.022778532 0.015862802 0.07163863 0.06457263
0001d0 1d 2f b5 3d 90 1b e7 3d 8b ae 72 bd 9f 7f 77 3a
       0.08846877 0.11284554 -0.05924849 0.0009441319
0001e0 9b 33 2b 3c 31 cc fb bc 2d a4 28 3d 04 12 09 bc
       0.010449315 -0.030737014 0.041172195 -0.008366112
0001f0 cb ca 37 bd f1 93 ab bd bb 52 f9 bc 49 5d 92 bd
       -0.044871133 -0.08377827 -0.030434957 -0.07146699
000200 69 cf c6 3d ef 06 39 3d 00 25 b2 3d ab 7b 25 bd
       0.09707529 0.045172628 0.086984634 -0.040401142
000210 c1 b7 06 bc 76 8f 86 3c 62 de d3 3d 1b fc ba bd
       -0.008222521 0.01642583 0.103451505 -0.091301166
000220 ec d9 0c bb ea 94 b2 3d f0 3b 67 3c 14 86 c3 3d
       -0.0021492196 0.08719809 0.014113411 0.09547058
000230 fc 63 b9 bd ff b3 bf 3c 1c b9 10 bd 27 0f 9a 3c
       -0.09052274 0.023401259 -0.035332784 0.018806053
000240 4c 17 88 3d 3f d8 72 bd 98 78 71 3d 9a 2a 7b bd
       0.066450685 -0.05928826 0.058952898 -0.061319925
000250 8d c8 ca 3c 97 59 d0 3d e9 03 b1 bc ef 25 42 bd
       0.024753833 0.10173338 -0.02160831 -0.047399458
000260 97 0f 65 3d 36 34 a8 3d 96 32 14 3d 87 26 8f bb
       0.05592307 0.082130834 0.036181055 -0.0043686065
000270 6a 39 04 3d 16 79 7d 3d 30 ea 76 3c f6 4e 71 bc
       0.032281317 0.061883055 0.015070483 -0.014728298
000280 f9 2e e4 3d a1 20 3f 3d bb 35 d7 3d f8 34 5a bd
       0.11141772 0.046661977 0.10508295 -0.05327317
000290 cc d9 cb 3d fe 79 7d bc 3a c3 c8 3d d8 85 58 3c
       0.09953651 -0.01547098 0.098028615 0.013215505
0002a0 5c 6c 8b bd a1 0a 04 bd c8 45 94 3c ec 31 60 3c
       -0.06807777 -0.0322367 0.01809968 0.013683777
0002b0 b0 11 13 3b fc fb 75 3d a2 b1 11 3e 44 f6 4c 3d
       0.0022440962 0.060054764 0.14227918 0.050039545
0002c0 bf 3d a8 3b 94 4a bd 3d 8a 6d 8b 3d 10 7c b6 bd
       0.005134314 0.0924274 0.06808002 -0.08910382
0002d0 b0 a2 b9 bd 72 b5 97 3d cc a4 02 3d ff e6 92 3d
       -0.09064233 0.07407655 0.031895444 0.07172965
0002e0 8b 61 40 bd c4 ff 8e bd 3d a7 8d 3d 3a 7f 42 bd
       -0.046968024 -0.06982377 0.06916664 -0.047484614
0002f0 63 cc 7f bd 88 33 60 bd 54 8a 97 bc 83 d5 9e 3d
       -0.062450778 -0.054736644 -0.018498577 0.07755568
000300 f0 5b 56 bd 3c 39 a3 3d 3d fb 7c bd 20 da ec 3c
       -0.052333772 0.07969901 -0.061763037 0.028912604
000310 74 6c b0 bd f6 d2 92 3d eb d9 33 3d aa df 00 bd
       -0.08614436 0.07169144 0.043908995 -0.031463303
000320 31 17 7a bc b2 e6 a1 3d 49 64 71 bb 40 bc ec bc
       -0.015264318 0.0790533 -0.0036833456 -0.028898358
000330 e5 c5 c8 bd 22 db a0 3d 42 34 85 3c 19 00 55 bd
       -0.098033704 0.07854296 0.01626027 -0.052002046
000340 ff f6 02 bd 9b e9 c8 bd 3d d0 cb 3d ff fa 93 3d
       -0.031973835 -0.09810182 0.09951828 0.07225608
000350 7a 03 84 bd 8b ba 9c 3d 65 ab 33 3c ad 29 b2 3d
       -0.064459756 0.07652768 0.010966157 0.08699355
000360 c8 16 84 bc 72 26 cc bb 69 c1 fc 3c f8 d2 b2 bc
       -0.016124144 -0.006230169 0.030853944 -0.021829113
000370 35 a9 0e 3e f5 b2 a6 3d 2e 57 b6 3d fe 5e 76 3d
       0.13931735 0.08139602 0.08903347 0.060149185
000380 d1 91 71 bd 3a 2a 4d bd 58 d8 6e bd 0d 4a 45 bd
       -0.058976952 -0.0500891 -0.05831179 -0.048166323
000390 7c 13 80 bc f6 2a b5 bd 1d 0a 98 bc 78 68 32 bd
       -0.01563429 -0.08846085 -0.01855951 -0.04355666
0003a0 c1 d6 70 3c f3 a2 2a 3d 9c 27 fd bc 1b 94 a1 bc
       0.014699639 0.041659307 -0.030902676 -0.019723943
0003b0 f3 6c 30 bc ec 50 8d bc 99 6d 67 bd ad 7b b7 3d
       -0.010768163 -0.0172505 -0.056501005 0.08959136
0003c0 86 26 41 3d 2c 3c d6 3c a9 f1 db bc a6 b5 34 3d
       0.04715588 0.026151739 -0.026848631 0.044118546
0003d0 90 64 a1 3d b1 c6 f6 bd c9 99 a4 bd 62 b4 59 bd
       0.07880509 -0.12049616 -0.08037145 -0.053150542
0003e0 d4 02 e7 bd a6 02 2e bd 7f e5 c0 bd b2 45 37 3d
       -0.11279836 -0.042482994 -0.09418773 0.0447442
0003f0 a0 84 46 3d bc bd e3 3d 35 9d 21 3c 63 bd 2c 3d
       0.048466325 0.11120173 0.009864141 0.0421728

sequential/conv2d_1/Conv2D f4 [48, 5, 5, 24]
000000 d8 b6 6c 3c 0f e9 31 bc 97 ed 37 3d fe 79 1a 3c
       0.01444789 -0.010858788 0.044904318 0.009428499
000010 4c b1 57 bc 28 40 10 3d 35 f2 03 bd ee 41 0b 3d
       -0.013164829 0.035217434 -0.03221341 0.033998422
000020 d8 b5 88 3d 97 af e9 bc 49 38 ab bc 22 f2 1f 3d
       0.06675309 -0.02852611 -0.020900862 0.039049275
000030 83 da 28 bd 8c a9 0b bc d9 78 10 3d f9 83 16 3b
       -0.041224014 -0.00852431 0.0352715 0.0022966845
000040 af 99 d2 3c 62 8c 49 3d bf 61 b5 bb 51 71 6b 3d
       0.025708048 0.049206145 -0.005535334 0.057481114
000050 59 1b 81 bb de e2 50 bd 0c d3 68 3b 5e fe 5a 3d
       -0.0039400277 -0.050997607 0.0035526184 0.05346524
000060 dc dc 91 bc 78 3c 62 3d c2 a5 d7 3c 9b 6e f6 bc
       -0.01780551 0.05523345 0.026324157 -0.030082038
000070 44 58 d3 3c 28 23 93 bc 36 61 c2 bc 9b ce 29 3d
       0.025798924 -0.0179611 -0.023727994 0.0414568
000080 ea 8f 5d 3c ca a0 9e bc 63 53 12 3d 97 2a 25 bd
       0.013523081 -0.01936378 0.035724055 -0.04032382
000090 cd e5 26 3d c1 47 97 bb 35 fa 4e bc 88 69 f1 bc
       0.0407465 -0.004616708 -0.012632896 -0.029469267
0000a0 42 53 79 3b b3 15 f8 3c f0 6c b5 bc 6a 83 df 3c
       0.003804401 0.030283784 -0.022146672 0.027284343
0000b0 20 75 9c 3c 20 fc 6f 3d 00 da 5b 3d d7 85 e9 3c
       0.019098818 0.058590055 0.053674698 0.028506203
0000c0 32 5f 91 3b db 4d 05 3c 36 3f 7f 3b 5d fe a9 ba
       0.004436397 0.008136238 0.0038947589 -0.0012969483
0000d0 4b 7b 73 bc cf 9f 92 3c f6 07 4d 3d 11 b1 48 bd
       -0.014860938 0.017898468 0.05005642 -0.04899699
0000e0 5e e1 09 3b 91 11 2c 3d 8d 5a ee bc 61 aa c4 bb
       0.002103887 0.04200894 -0.029095912 -0.006001756
0000f0 66 d8 4d bd 6a 6d 5c 3d e5 22 33 3c cb f5 4a 3d
       -0.0502552 0.053815283 0.0109336125 0.049550813
000100 e1 62 0d 3d 55 0d b2 bc c6 ee 45 bd aa b4 88 bc
       0.034518126 -0.021734873 -0.048323415 -0.01668771
000110 00 2d 73 bd 46 5e a9 bc 1f ed 1e bd 7e 43 47 3d
       -0.059369087 -0.020674836 -0.038800355 0.04864835
000120 67 1c 60 bc e5 7b ca bc c0 79 bc bc f0 69 00 3d
       -0.013678647 -0.02471728 -0.023007274 0.03135103
000130 86 a7 68 bd aa 23 05 3d cc ae 36 bd 12 00 4a bb
       -0.056800388 0.032504715 -0.044600293 -0.0030822796
000140 20 47 74 bc 31 31 b0 3c 57 89 8b 3d 31 8a 38 bc
       -0.014909536 0.021507831 0.06813305 -0.011263416
000150 1f a9 9a 3c d6 a5 3c 3c 2b 38 1b 3d 7c 1e 03 bd
       0.018879471 0.011514148 0.037895363 -0.032011494
000160 66 ed c9 bb 82 09 27 3d 7b 05 ae bb 0f 26 3d 3d
       -0.0061623333 0.04078055 -0.005310712 0.046178874
000170 5a 34 92 3c 81 bf 56 bc 0b 97 1b 3d e7 9f 8f bc
       0.017847229 -0.0131071815 0.037985843 -0.017532302
000180 fd 2c c7 3b d2 d9 95 3c f5 ca 5f bd e5 a6 13 bb
       0.006078361 0.018292341 -0.054636914 -0.0022529897
000190 e6 a1 1f b9 7f 8f 44 3d ee a7 b4 bc b5 81 bb bc
       -0.00015223733 0.04798841 -0.022052731 -0.022888998
0001a0 10 dd 15 bc 9b a8 2e bd 4b 52 e8 bc 61 54 2f bc
       -0.009146944 -0.042641263 -0.028359553 -0.01070127
0001b0 12 e0 10 bd 6b 63 18 bd 2c 55 8e bc 95 cb 95 bc
       -0.03536994 -0.037204187 -0.017374597 -0.018285552
0001c0 df cc ac bc 07 ef 9b 3b 2b 64 1e bd c9 1b 74 bc
       -0.021093784 0.004758719 -0.038669746 -0.014899203
0001d0 54 55 32 bd 45 1e 7d 3c 85 ab 6e bd f6 58 59 3d
       -0.043538406 0.015449111 -0.058269043 0.053063355
0001e0 d1 6f 35 bc c3 4c a3 3c a0 ff 8c bc d4 04 45 3d
       -0.011074022 0.019934064 -0.017211735 0.048100308
0001f0 f5 31 68 3d 7f 19 80 3c 39 5c e8 3c 6e 4d 37 3d
       0.056688268 0.015637157 0.028364288 0.044751577
000200 78 d2 e8 ba 7f 0c 9f 3c 06 c9 bc 3c 04 c6 f3 3c
       -0.001776292 0.019415138 0.023045074 0.029757507
000210 33 6a 9f 3c 60 bc 9e 3d aa 2f 28 3d 04 b8 69 bd
       0.01945982 0.077507734 0.04106108 -0.057060257
000220 95 7c 26 bd b2 8b 9b 3c d6 7f 5e 3d 32 64 1c 3d
       -0.040646154 0.01898751 0.054321133 0.03818149
000230 12 b5 af 3c a8 41 00 bd f4 36 35 3d 34 7d 3a bb
       0.021448646 -0.031312615 0.04424186 -0.0028455975
000240 93 ea 91 3d 3c 25 6c bc 5c d3 1e 3c b4 44 f2 3c
       0.071248196 -0.014413174 0.009693947 0.029573776
000250 ae a0 52 bd a9 76 8c bd e3 a1 b8 3b f3 3e 31 3c
       -0.051422767 -0.0685857 0.005634533 0.010818231
000260 de 59 23 3d 91 b8 36 bc 65 4e c9 bc db 8f 5f 3d
       0.039880626 -0.0111524025 -0.024573514 0.05458055
000270 2b a2 39 3d fb 2b 94 3d 6a c6 f8 3c a3 35 ab 3c
       0.04532067 0.07234951 0.030368049 0.0208996
000280 1b db 58 bc a7 ec 49 3d fd 0d 5e bb f7 8b 7d 3c
       -0.013235833 0.049297955 -0.003388285 0.015475265
000290 c5 90 2f bd 1f 52 69 bd 2b 23 25 bd c4 eb 2e 3d
       -0.042862672 -0.056963082 -0.040316742 0.042705312
0002a0 96 69 07 3d c2 ab 85 3d c9 56 62 ba 5c 2c 44 3b
       0.03305968 0.06526901 -0.0008634148 0.0029933667
0002b0 9e 60 6c 3c 4d ae 88 bc 39 3f 1a bc cc 66 09 3d
       0.014427332 -0.016684676 -0.0094144875 0.0335453
0002c0 8a 25 ec 3c 20 63 d9 3b 1a b2 3f 3d 5b 7c 50 bd
       0.028826494 0.006634131 0.04680071 -0.050899845
0002d0 14 62 80 bb 96 b4 22 bc fb 4b c0 bb 32 82 89 3c
       -0.003917942 -0.00993075 -0.0058684326 0.016785715
0002e0 9b e0 9a 3c 08 d0 74 3d 16 6c 65 bd 72 a0 99 3c
       0.018905928 0.059768707 -0.056011282 0.018753264
0002f0 e4 b0 91 3c 7e e5 9f 3b 9a 9f c2 3c 08 27 ed 3c
       0.017784543 0.0048796525 0.023757745 0.028949276
000300 85 25 fa bc 04 44 31 3d 96 87 75 3c cf 5e 47 3c
       -0.030535469 0.043277755 0.0149859395 0.0121686
000310 cd 60 e3 bc bc 99 6d bc 2e 40 4a bc 2c 54 5b bd
       -0.02775612 -0.014501985 -0.012344403 -0.05354707
000320 3c 8f 4e 3d cb 97 ba 3a 37 db 6d bd 1f 5a 81 3a
       0.050429568 0.0014235912 -0.058070388 0.0009868777
000330 7c 32 d7 bb 82 46 a5 bb 25 cf 4c 3d 51 9c 41 3b
       -0.0065672975 -0.0050438056 0.050002236 0.0029542635
000340 3e 57 20 3d 6e 62 9b 3b 03 e5 cb 3a a3 43 4b 3d
       0.0391457 0.0047419583 0.0015555922 0.04962505
000350 3f 13 c8 bc 58 3c 94 bc f6 ec 51 3c 69 84 8b 3c
       -0.02442324 -0.01809518 0.012812844 0.017030912
000360 5d ff 4a 3d f5 c4 3f 3d 17 c6 06 bd 12 0f d4 bc
       0.04955994 0.046818692 -0.032903757 -0.025886092
000370 6e 9b f1 3c be 9d 37 bd 03 c4 16 3d bf 3f 55 3b
       0.02949306 -0.04482817 0.036808025 0.0032539216
000380 e1 d2 81 bb e5 d6 36 3c 85 3f 23 3d 88 50 d9 3c
       -0.0039619063 0.011159633 0.0398555 0.026527658
000390 22 bf ca bc 43 7f ea 3c 02 39 52 3c f1 a4 c6 3c
       -0.024749342 0.028625136 0.0128309745 0.024248572
0003a0 e4 28 fa bc 91 9d 46 3c b4 75 27 3c e9 20 39 3d
       -0.030537076 0.012122528 0.010220934 0.0451974
0003b0 65 43 20 bd ef f7 2a 3d 25 80 95 3c e0 84 18 3d
       -0.039126772 0.041740354 0.01824958 0.037236094
0003c0 7f be 67 bd 62 f0 64 bd c6 3f f1 3c 2c 66 7b bd
       -0.056578156 -0.05589331 0.029449355 -0.061376736
0003d0 2e d1 2d bc da 56 27 bd a6 fd 31 bd f2 eb 55 bd
       -0.010608954 -0.040854312 -0.04345479 -0.052226968
0003e0 97 cd 1e bd 6d ec 64 3c dd 4a da 3b de 81 97 bc
       -0.038770285 0.013972384 0.0066617564 -0.018494543
0003f0 3f 6b e7 bc a5 a4 3e b9 ac e0 53 bc 40 1d 75 bd
       -0.028249381 -0.00018181147 -0.012931984 -0.059842348

sequential/conv2d_2/Conv2D f4 [48, 5, 5, 48]
000000 c8 4d 33 3b 8a e7 1f bc cc 70 0c bd 7a e1 4e bd
       0.0027359594 -0.009759793 -0.03428726 -0.050508
000010 71 08 c5 3d 0c 4d 03 3b 4b 5d 72 bd c0 cd 12 bd
       0.09620751 0.0020034937 -0.059171002 -0.03584075
000020 bd 49 b3 3c 57 e1 8f 3b 78 1f 4c bd f3 7e 83 bc
       0.021885747 0.0043908763 -0.0498347 -0.016051745
000030 4b d0 61 bd 21 7f 0d bd 34 46 3f bd f9 e3 b2 3c
       -0.055130284 -0.034545068 -0.04669781 0.021837221
000040 6b 92 c4 3c d8 08 be 3c 42 6a 0c 3d 7e 48 36 3d
       0.023995599 0.023197576 0.034281023 0.044502728
000050 de f8 60 3d 81 24 c0 bc 84 81 24 bd e5 13 06 3d
       0.05492484 -0.023454906 -0.04016258 0.032733817
000060 49 9f 6a bd cd 37 25 bb c4 48 1c bd d8 95 a2 3a
       -0.057280812 -0.0025210262 -0.038155332 0.0012404276
000070 05 36 04 bd 98 60 f7 3c 9c 98 c5 bc 54 55 f7 bc
       -0.03227808 0.030197427 -0.024120621 -0.030192055
000080 fc cc 8b bc eb 28 1a 3d 9c 1a a3 3a a5 b7 07 bd
       -0.017065518 0.03763668 0.0012443843 -0.03313412
000090 0d b6 34 bd c9 dc 94 3c b8 67 8b ba 06 c0 b2 3d
       -0.04411893 0.018171685 -0.0010635769 0.08728032
0000a0 1e 33 dd bc a2 ec 9e bc 7d a1 80 bc 1a cf 03 bd
       -0.027001914 -0.019399945 -0.015702004 -0.03217993
0000b0 e9 ca ed 3c 8e c5 22 bb 25 06 98 3c cc ae a8 bc
       0.02902742 -0.002483699 0.018557617 -0.020591162
0000c0 a4 1e 00 bc 0b 0f 49 ba 40 b3 8b bd f7 60 9c 3c
       -0.007819805 -0.0007669783 -0.068212986 0.019089205
0000d0 ed b8 e4 3c 85 f7 e9 bc 0c f3 6e bd 81 2f 2d 3d
       0.02792021 -0.02856041 -0.058337256 0.04228163
0000e0 e9 61 38 bd 14 96 1a 3d 50 92 a0 bb 0d 11 0a bc
       -0.04501525 0.037740782 -0.0049002543 -0.008426917
0000f0 79 9d 21 3d b9 40 6a bd 36 85 c1 bd 90 15 13 bd
       0.03945682 -0.05719063 -0.09449236 -0.035909235
000100 64 bb 43 3c ba 46 1e 3c 04 01 25 3c 19 c4 3d bd
       0.011946533 0.009660417 0.010071043 -0.04632959
000110 0d 32 f5 3c 80 96 0e bd 6b b6 02 bd f4 e0 15 3d
       0.029931093 -0.034811497 -0.03191225 0.036591485
000120 9d d2 9a 3c fc 3b 35 3d 4e e5 85 3c 0f 6b 64 3b
       0.018899256 0.04424666 0.016344693 0.003485385
000130 9a 8c 11 3d 7d fe e5 3c 84 da 28 bd cc ae 25 bb
       0.03553448 0.028075451 -0.041224018 -0.002528119
000140 28 a2 c3 3b 47 57 93 3c 5f 18 9c ba ad 77 b7 bc
       0.0059702583 0.017985953 -0.0011909119 -0.022395933
000150 0d 1b 35 bd 04 f7 2e bc 91 d6 23 3c 54 5a 57 3d
       -0.04421525 -0.01067901 0.009999887 0.052576378
000160 04 25 30 bd 5b 2b 5e 3c 85 dc 3f 3d 4d 15 0d bd
       -0.04300405 0.013560141 0.046841163 -0.034444142
000170 9d 86 98 ba 19 5f 22 bd 14 76 17 3d d2 35 2f bc
       -0.0011636798 -0.039641473 0.036977842 -0.010693984
000180 c7 9e 46 3d a4 1b 53 bd f7 0b 59 bd ce b0 8d bc
       0.048491266 -0.051540032 -0.052989926 -0.017296221
000190 81 47 aa bb b9 54 ea bb db 68 78 ba cf b6 dc bb
       -0.005196512 -0.007151213 -0.0009476074 -0.0067356597
0001a0 be 8e 12 3d 7b 1d 39 bc 68 7d 88 bb 36 7e 9f bc
       0.03578066 -0.011298533 -0.00416534 -0.019469362
0001b0 b1 a6 31 bd a8 d2 81 bd 69 a2 20 bd 7d 80 7b bc
       -0.04337186 -0.063390076 -0.039217386 -0.015350458
0001c0 f2 a7 b4 3a 09 5d 62 3c 38 da 21 3d 75 2a 5d bc
       0.0013782962 0.013816127 0.03951475 -0.013498892
0001d0 b2 58 d8 bb 5c 0c ca 3c 36 f4 d7 3c 80 9f 34 3d
       -0.00660237 0.024664097 0.026361566 0.044097424
0001e0 4f 61 be bc 5f e8 2a ba 10 0a 11 bb 68 73 49 bd
       -0.02323976 -0.00065196113 -0.0022131242 -0.049182326
0001f0 e5 2d b4 bc 08 13 1d bd c2 49 91 3c e9 1c cb 3c
       -0.02199454 -0.038348228 0.017735366 0.024794059
000200 bc b1 90 bc 08 aa 25 bc 15 f0 fc bc 59 aa 6e bc
       -0.017662875 -0.010111339 -0.030876199 -0.014566981
000210 71 cb cc 3c 7a 8e 16 3a 35 0e 58 bd 8a 51 55 3c
       0.024999352 0.00057432766 -0.052747924 0.013019929
000220 16 ae fc bc 0b 32 13 3c ba 16 59 bc 5e 11 16 bc
       -0.03084473 0.008984099 -0.013250047 -0.009159414
000230 99 72 02 3d 59 33 23 bb 78 d8 ec bc 8f cf aa 3c
       0.03184757 -0.0024902432 -0.028911814 0.020850925
000240 4b 2c 2d 3c 93 d8 87 3b a2 1d 54 bc 6f 15 c5 bc
       0.010569642 0.0041456907 -0.012946518 -0.024058072
000250 a6 09 55 3a 52 ec 1e 3d a2 11 08 bd 1a 59 56 3d
       0.0008126743 0.03879959 -0.03321994 0.052331068
000260 8a 94 bd bc 2b a6 4e bc 6d 74 2d bd 0a 3a d1 bc
       -0.023142118 -0.01261286 -0.04234736 -0.02554037
000270 a5 8c 8c 3c 35 ac d1 3c fa 8e 8c bd 5f 90 17 3c
       0.017156908 0.02559481 -0.06863208 0.009250729
000280 95 47 23 3d 95 a3 e7 3c 1a ad e8 3c ee 6c af 3c
       0.039863188 0.028276244 0.028402854 0.021414246
000290 b9 ed 68 bc 7c a0 65 bb ab b4 87 3c ca 77 48 bd
       -0.014216834 -0.0035038283 0.016565641 -0.048942365
0002a0 db e8 09 ba 2e 1d 28 3d e2 f8 01 bd a6 0f 11 ba
       -0.00052608334 0.041043453 -0.031731494 -0.0005533643
0002b0 32 e9 c3 bc d7 a2 c6 bc 30 46 93 bc 90 18 45 3d
       -0.023914907 -0.02424757 -0.017977804 0.048119128
0002c0 69 09 11 3d f9 8c 1b 3d 04 35 15 bd 5d 47 02 3c
       0.035409365 0.03797624 -0.036427513 0.007951585
0002d0 aa 91 2c 3d 48 c1 35 bb 1f 35 38 bd f0 c9 00 bd
       0.042131104 -0.0027733613 -0.044972535 -0.031442583
0002e0 0a 56 4a 3d d6 41 e1 3c 6f 24 a0 3c 8b 96 e4 bc
       0.04939846 0.027497213 0.019548623 -0.027903816
0002f0 83 b1 a2 3b 51 83 95 3c 35 5e f4 3c 04 6b 8f bc
       0.0049650087 0.018251093 0.029830078 -0.017507084
000300 2a 99 a9 bb 72 d1 56 bd b7 73 f2 3c 5e 97 1b bd
       -0.0051757293 -0.052445836 0.029596193 -0.037986152
000310 75 c2 4f 3d 73 69 e6 3c fc cb 9a 3c 68 e7 88 b9
       0.050722558 0.028126454 0.018896095 -0.00026112352
000320 6a f4 b2 bb 0d 70 f6 3c 32 2b 07 3d 3c 72 56 bd
       -0.0054612653 0.030082727 0.03300018 -0.052355036
000330 e1 c5 70 bc 3f 0f 01 bc 04 8c 0f bd f1 18 49 bc
       -0.0146956155 -0.00787717 -0.03504564 -0.012274013
000340 5a f7 89 bc e4 99 45 bc b5 1e 65 3d 08 20 bd 3c
       -0.01684158 -0.012060616 0.055937488 0.023086563
000350 66 fa 51 3d 4d 8c 3b 3d 0e a0 30 3b 1f 2e 34 bd
       0.05126419 0.045788098 0.0026950869 -0.043989297
000360 9d b9 5a bd e5 9f 31 3d 57 da 17 bd 5d e5 ab bc
       -0.05339967 0.043365378 -0.03707346 -0.020983392
000370 b9 eb 09 3d af 29 13 bc 12 b8 f7 3c 1f 22 69 3c
       0.03367207 -0.008982106 0.030239139 0.0142293265
000380 eb 3b 3a bd 25 85 3e 3d b3 df 8b 3c 69 25 19 3d
       -0.0454673 0.046513695 0.017074442 0.037389193
000390 0b 22 a6 3c d8 6d 94 3c ae d1 36 3d ec 8d c2 bc
       0.020279905 0.018118784 0.04463356 -0.023749314
0003a0 d1 eb 22 bd e9 be cc bb 50 cd 62 bd 77 4d fc 3b
       -0.039775673 -0.006248344 -0.055371583 0.007699664
0003b0 ea 63 53 bc de 30 c1 3c 91 f9 22 3d 0b c6 41 3d
       -0.012902239 0.023582872 0.039788786 0.04730801
0003c0 f1 9d 6b bd 3e 9f 0d bd de a6 28 3c 8e fe 34 3d
       -0.05752367 -0.034575693 0.0102936905 0.044188075
0003d0 e3 18 fe bb a9 74 c8 3c ef 8a 47 3d 36 56 7a 3a
       -0.0077544316 0.02446969 0.04871648 0.00095495896
0003e0 ed 3f 07 3c f3 f1 14 3d 84 ed 9d bc 65 fd 2c 3d
       0.008254987 0.036363553 -0.019278295 0.042233843
0003f0 dc a9 3c bc e7 38 21 bd 2e 97 da 3c e1 21 85 bc
       -0.011515107 -0.039360907 0.026683416 -0.016251506

sequential/dense/BiasAdd/ReadVariableOp f4 [64]
000000 d7 ff 63 3c 15 84 5f bc 12 e0 4a bc 50 85 8f 3c
       0.013915977 -0.013642331 -0.012382524 0.017519623
000010 fd 2a ba 3a fd ca b8 3c 2b 57 0d bc 24 de 87 3b
       0.0014203485 0.02255773 -0.0086267395 0.0041463543
000020 35 42 41 3d bd fd 7b 3b 4a 52 1d 3c 5a 7a c5 3c
       0.04718228 0.00384508 0.009602139 0.024106193
000030 1d ad df bb 4c 1e 15 3c f0 9b df 3c f4 be 93 bc
       -0.0068260566 0.009101462 0.027296036 -0.01803539
000040 af 04 21 bb 7a 42 77 bc 80 13 cd 38 a8 74 69 3c
       -0.0024569442 -0.015091533 9.778794e-05 0.014249004
000050 64 cb 03 bc aa 9d bf 3c 3e 75 b3 bc bf 15 88 3c
       -0.008044098 0.02339061 -0.021906491 0.016611932
000060 2f a6 e7 3b d9 24 29 3c d6 ed 6a b9 94 95 3e ba
       0.007069371 0.010323727 -0.0002240458 -0.00072702137
000070 2e 99 71 3b 92 21 46 3c e8 7e 51 3c ac 23 d9 b9
       0.0036864984 0.012092965 0.012786604 -0.00041416043
000080 dc 64 6b bc a0 1d a1 bb 59 ac 99 3c 3c b7 a1 3c
       -0.0143673085 -0.0049168617 0.01875894 0.019740693
000090 68 cf 53 bc 62 4a 3c bc 1a d3 5b 3b fb 63 72 3c
       -0.0129278675 -0.011492344 0.0033542574 0.014794345
0000a0 52 c0 3d 3c aa 5a 96 3c 82 05 ee 3c 02 0c e3 39
       0.011581497 0.018353779 0.02905536 0.0004330576
0000b0 e2 db d0 3b e1 20 97 3b 01 af 4b bb f6 de 84 3b
       0.0063738683 0.004612074 -0.0031079652 0.0040548993
0000c0 54 bd bc 3b 13 3c 2a bc 49 b1 ab bb 9b ec 84 bb
       0.0057598744 -0.010390299 -0.00523964 -0.004056526
0000d0 48 db 07 3d be 0b 97 3c d9 c6 9c bb 25 82 ab 3c
       0.033168107 0.018438216 -0.0047844467 0.020936081
0000e0 48 f9 3b bc c7 1a 71 3d 1c 53 61 3c 0d e3 92 3c
       -0.0114730075 0.058863427 0.013752725 0.017930532
0000f0 64 85 32 bc 94 e2 c6 bc 38 96 10 bc 28 05 10 ba
       -0.010896061 -0.024277963 -0.008824877 -0.00054939324

sequential/dense_1/BiasAdd/ReadVariableOp f4 [5]
000000 92 86 09 be 4e c9 1a ba 8c 80 9c 3c 67 8f ba bc
       -0.13430241 -0.00059046305 0.019104265 -0.022773458
000010 c3 1e 88 3d
       0.06646492

sequential/dense/MatMul f4 [64, 2400]
000000 bf c4 ee 3c 40 54 aa bc 50 de 42 bd 50 44 16 bd
       0.02914655 -0.020792127 -0.047575295 -0.03668624
000010 f4 7f 29 bc 7e 53 4b bd a6 0d 62 3c 14 90 2d 3d
       -0.010345448 -0.04964017 0.013797199 0.04237373
000020 8a 65 2b bd 91 0e 79 bc 72 86 e1 bb 63 c5 94 bd
       -0.041844882 -0.015201227 -0.006882482 -0.07264211
000030 1e 72 d1 bc a4 bc 5d 3d b2 3e 5c 3d d3 30 31 3d
       -0.02556711 0.05413498 0.05377073 0.043259453
000040 c6 02 e8 bc cd c4 77 bd ae 35 9a bc 8f 37 5c 3c
       -0.028321635 -0.06049042 -0.018824425 0.013440981
000050 b1 fa 43 bd c6 67 34 bd 5a 8c 61 3d bd 0a b3 bc
       -0.0478465 -0.04404428 0.05506549 -0.021855706
000060 a3 e1 ec 3b 10 f8 a6 3b 74 60 6e bd 6f 05 f2 bc
       0.0072290464 0.0050954893 -0.058197454 -0.029543607
000070 dd 23 12 bd eb 1b cc ba f9 85 ea bc ba 1c f3 3c
       -0.035678733 -0.0015572285 -0.028628336 0.029676784
000080 1c 3a 46 bd 01 89 82 bd 62 63 b9 3c 4f 52 94 3d
       -0.04839526 -0.06373788 0.022630397 0.072422616
000090 6c 1a 01 3c 72 1f af 3a a7 3f 1c bd 2d 59 dd bc
       0.007879835 0.0013360812 -0.03814664 -0.027020061
0000a0 19 4e 62 bd 91 6b 2c 3d 27 98 47 3c eb c1 df bb
       -0.05525026 0.04209477 0.012182272 -0.0068285367
0000b0 7d ee 23 bd bb f9 f6 3a c1 0e 30 bb ef c2 55 bc
       -0.040022362 0.0018842736 -0.0026864263 -0.013046964
0000c0 59 64 4e bd 73 e2 39 bd f9 6a a8 bc 02 52 8e bc
       -0.050388668 -0.045381974 -0.020558821 -0.017373089
0000d0 e7 db 3d bd 18 2e e5 3c 06 c8 af bb f2 51 20 3c
       -0.046352293 0.02797608 -0.005364421 0.009785162
0000e0 61 7b 27 bd 45 3a 0f bc a2 cd 84 bc 36 a3 24 bd
       -0.040889148 -0.00874192 -0.016211335 -0.040194713
0000f0 f6 bc a3 bc da cc 26 3d 2a cd d5 bc 1b 8f 03 bd
       -0.019987565 0.040722705 -0.026098806 -0.032118898
000100 f8 7d ab 3b 62 eb de bb 1f b9 1e 3d 08 6b a1 3c
       0.0052335225 -0.006802962 0.038750764 0.019704357
000110 05 12 2c bd 3b 12 11 bd 15 fb 84 bc d7 ca 01 3c
       -0.042009372 -0.035417777 -0.016233006 0.007921896
000120 b3 b2 b1 3b e9 d3 f0 3c 36 12 63 bd 79 75 84 bc
       0.005422914 0.029397922 -0.05543729 -0.016169297
000130 af 59 32 3d e7 c1 d2 bc 9b 77 85 bd 18 92 19 bd
       0.04354256 -0.025727225 -0.065169536 -0.03749284
000140 bd 66 44 bd 34 9b 10 bc 27 a4 e9 bc 49 4b 0d 3d
       -0.04794954 -0.008826066 -0.028520657 0.034495626
000150 b5 d5 b7 bc 0d 04 b7 3d c0 67 2e bd bc fb 60 3c
       -0.02244077 0.089363195 -0.042579412 0.013731893
000160 4f 1a 44 bd 08 04 f8 3c 71 30 95 3d cd ec 05 3d
       -0.047876652 0.03027536 0.0728463 0.032696534
000170 28 14 8a ba 7b 12 aa bc 7f 9d 27 bc 6c 34 8d 3b
       -0.0010534571 -0.020760765 -0.010230421 0.0043092277
000180 3f 1c 83 bd 37 04 ea 3b fa 78 3e bc a8 4d a2 bb
       -0.06401872 0.0071416157 -0.011625523 -0.004953105
000190 53 50 d0 3c 60 24 33 3c c8 82 23 3d de 86 c6 3c
       0.025428927 0.010933965 0.039919645 0.024234232
0001a0 0e 14 b7 bc b2 a0 5a bb 4a db 03 bd 0d 03 0a 3b
       -0.02234843 -0.0033359942 -0.032191552 0.0021058947
0001b0 28 e7 34 3d b7 e9 10 bd 65 a5 07 ba 66 b8 ac 3c
       0.04416576 -0.035379138 -0.0005174487 0.021084022
0001c0 23 31 0e 3d b1 de ba 3c fa 24 8a 3c 36 b5 82 3d
       0.03471483 0.022811266 0.016863335 0.063822195
0001d0 d8 14 27 bd 83 fd 47 bd be c8 8b 3a e3 54 1e bd
       -0.040791363 -0.048825752 0.0010664684 -0.038655173
0001e0 ec 14 93 bc 2d 7c 9f 3b cc f6 2d bd 71 f7 b4 bb
       -0.017954312 0.004867098 -0.042471692 -0.0055226614
0001f0 ed b4 5c 3c 77 84 2c 3d d0 f5 1e bd ca 6c 92 3c
       0.01347087 0.042118516 -0.038808644 0.01787414
000200 84 5e 02 bd 71 dd 47 3d 64 db fd bc b3 6d 8c 3d
       -0.03182842 0.048795167 -0.030988403 0.06856861
000210 0e e3 14 bd 24 b3 8a 3d a8 fc 25 3c 42 b8 0a 3d
       -0.03634935 0.067724496 0.010131039 0.03386713
000220 97 2f 85 bd a9 29 1f bc 0f 59 1d 3d b6 67 83 39
       -0.06503218 -0.009714522 0.03841501 0.00025063538
000230 f4 3e 6a 3c 92 a6 03 3d b4 1e 8f 3c 79 11 ed bb
       0.014297236 0.032141276 0.017470695 -0.007234749
000240 de 3b 35 bd fc 99 59 bd 2d 97 c4 bb 35 10 19 bd
       -0.044246547 -0.053125367 -0.005999467 -0.03736897
000250 3d c0 0a bb d3 b1 dc 3c f2 b7 81 bb 62 14 f8 3c
       -0.0021171712 0.026940262 -0.0039586956 0.030283157
000260 73 9d bf bc 24 3d 12 bc 96 24 c6 bc 21 d8 ac 3b
       -0.023390507 -0.00892571 -0.024187367 0.005274788
000270 5b 4a 13 3b 58 28 ba ba 7e 55 22 bd b6 e7 0e bb
       0.002247474 -0.0014202697 -0.039632313 -0.002180559
000280 a8 d4 21 bd 5d c1 61 3c e0 ed 16 3d eb 8f c2 3c
       -0.039509445 0.013779012 0.03684795 0.023750266
000290 23 c0 79 bc 54 a4 4b bc 74 2c 91 3b fa 8a 30 bc
       -0.015243563 -0.012429316 0.004430348 -0.010775322
0002a0 27 8e df 3a 18 a6 38 bd d1 4a 15 bd ff b5 43 3d
       0.0017055915 -0.045080274 -0.036448304 0.047780987
0002b0 19 d4 08 3c ee 54 5f bc 5d 27 88 bd 1b ba 0d bd
       0.008351349 -0.013631089 -0.06648133 -0.034601312
0002c0 a1 31 f8 3b 8d 12 ef bc 4f a8 ca bc 7b 40 84 3d
       0.0075742756 -0.02918365 -0.024738459 0.06457611
0002d0 66 5d 4b bb ad 72 0a 3d 0f f5 1e bd 98 2f ba 3d
       -0.0031031012 0.03380077 -0.038807925 0.09091109
0002e0 1b cc 92 bd eb ab 23 3d 9d 68 07 bd 24 25 f7 bc
       -0.07167836 0.039958876 -0.03305875 -0.030169077
0002f0 c5 d4 71 ba cc 49 7e 3b ad 9a 4b bd 12 d3 5e 3d
       -0.00092251255 0.003880131 -0.049708057 0.05440051
000300 a2 0d 6a 3c 50 d3 65 bd 14 06 a4 bc 45 b4 48 3c
       0.014285477 -0.056109726 -0.02002243 0.012250011
000310 d7 a6 8d bc 67 ad 42 3d 37 9f 08 3c a3 70 1f bd
       -0.01729147 0.04752865 0.008338741 -0.038925778
000320 96 1f 4d bd 2f f7 2a bd ea fb ee 3b a7 76 8d bd
       -0.05007895 -0.04173964 0.007293214 -0.06907397
000330 76 3f 31 bd 40 cf f2 bc d3 69 5c 3d c7 37 bb 3c
       -0.04327341 -0.02963984 0.05381186 0.022853745
000340 40 39 ca 3c 51 a3 67 3c f1 36 d1 3b d9 98 7a 3c
       0.024685502 0.014138059 0.0063847234 0.015295231
000350 d0 88 49 bd cd ca 79 bc b3 03 57 bc 33 84 67 bd
       -0.04920274 -0.015246105 -0.013123441 -0.05652256
000360 08 cb 31 3c cf ee fc 3c 6a 48 61 bd e5 7c 41 bd
       0.010851629 0.030875592 -0.0550007 -0.04723825
000370 76 67 16 bb ce db 02 bd 7b 6a 7d 3c f1 94 c7 bc
       -0.002294985 -0.031947903 0.015467281 -0.024363013
000380 99 35 d5 bc a6 e3 18 bb 13 8d fd ba 41 6f 68 3d
       -0.026026534 -0.0023329048 -0.0019344412 0.056746725
000390 e5 f8 02 bd c3 ca 4a bc 4c f9 4b 3c 41 a0 ad 3c
       -0.031975646 -0.012377444 0.012449574 0.02119458
0003a0 e0 5d b9 3c da 8c 7f bc 9f 36 94 bd 22 68 32 3d
       0.02262777 -0.0155975465 -0.07236981 0.04355634
0003b0 4d d5 3b bd 13 95 0c 3d 64 db 4c 3c fe 21 f9 3b
       -0.045857716 0.034321856 0.012503479 0.007602929
0003c0 5c f2 0c bd 31 87 23 bd 7f 8e 26 3d ac 16 27 3d
       -0.03441082 -0.03992385 0.04066324 0.040793106
0003d0 9c f7 3c 3d ae 3c 32 3d f7 31 09 bd ee c9 81 3c
       0.046134576 0.0435149 -0.033494916 0.015843358
0003e0 d0 b4 b1 bc 37 8e 83 3c ac 1e 4f 3d 6d 8e d6 3b
       -0.021692663 0.016059024 0.05056636 0.00654774
0003f0 88 3e ba bc 02 1a 61 3c f1 ab ff bc 2a 3d 46 bd
       -0.022734895 0.013739111 -0.031209918 -0.048398174

sequential/dense_1/MatMul f4 [5, 64]
000000 44 95 36 3e ab e1 80 3e fc 99 64 3e 2f 96 b3 be
       0.17830378 0.2517217 0.22324365 -0.35075518
000010 65 02 e0 3d 2b a8 1b be 0a f9 a8 bd 87 a9 7e 3d
       0.10937957 -0.1520087 -0.082506254 0.062173393
000020 5d 21 a9 be 64 62 0d 3e 10 ab 9f be e6 7c 0c be
       -0.33033267 0.13807064 -0.31185198 -0.1371952
000030 20 66 72 3e db a1 a7 bd dd 0b c4 be 9d 74 96 3e
       0.2367177 -0.08185168 -0.382903 0.29385844
000040 23 63 5f 3e 7c 56 c3 3d 1d 59 19 be 9d 19 62 be
       0.21815161 0.0953798 -0.149754 -0.22080083
000050 a5 b0 9e 3d 54 c1 91 bd ec 52 87 3e 3b 37 8a be
       0.07748536 -0.071169525 0.26430452 -0.26995263
000060 99 3d 02 3e 1c 4b 5a bc 85 1f 83 bd c2 2d 46 be
       0.1271881 -0.0133235715 -0.06402496 -0.19353393
000070 fa 55 d4 3d 85 15 95 be 6c 51 ce bd ff 9c 9b be
       0.10367961 -0.2911798 -0.10074124 -0.30393216
000080 39 b6 93 3e 27 7e 12 3e e1 ee b0 bd 2f 79 ab 3d
       0.28849962 0.14305936 -0.086393125 0.08372723
000090 f5 d6 81 3e f6 64 24 bd 5f a4 90 bc b6 0d 93 be
       0.25359312 -0.040135346 -0.017656503 -0.28721398
0000a0 b0 36 65 be e8 5e 5a be d5 d9 11 3e 51 07 99 be
       -0.22384143 -0.21325266 0.14243253 -0.29888394
0000b0 68 6e e1 3d 10 16 f9 bd a0 89 86 be 9b 65 7a be
       0.110073864 -0.12162411 -0.26276875 -0.24452822
0000c0 41 54 f9 bd 9b 8a 19 be 7a da c3 bd da 26 1b bd
       -0.12174273 -0.1499428 -0.095631555 -0.03787885
0000d0 bb bb 08 be 90 4a 28 3b 4a e7 81 be 14 77 a5 be
       -0.13352863 0.0025679208 -0.25371772 -0.32317412
0000e0 ff 86 95 3e 50 d4 bf be 75 52 a7 be 28 7a 22 bd
       0.29204556 -0.3746667 -0.32680097 -0.03966728
0000f0 9d 7b 9f 3d 5f 8d 97 3e da 5f ed 3d 37 18 34 be
       0.07787249 0.29600045 0.11590548 -0.17587362
000100 cd 22 50 bd db 48 7f bd dd 9c ad bd 8e e5 98 be
       -0.05081444 -0.06232534 -0.08477185 -0.29862636
000110 ce 62 94 be c1 f3 92 3d 04 25 fd 3b 02 5c 57 be
       -0.28981632 0.071753986 0.00772536 -0.21031192
000120 5d 00 b1 be 54 9f 93 3d 04 08 2e be 5c 70 d0 bd
       -0.3457059 0.07208124 -0.16995245 -0.10177681
000130 c7 01 79 3e d7 cf b0 be 65 de ca 3c e2 db 96 be
       0.24317084 -0.3453357 0.02476425 -0.29464632
000140 46 cd 5e 3e f4 c2 72 be 84 4f 25 be 88 2e da bd
       0.21757993 -0.23707181 -0.16143614 -0.106534064
000150 9c 18 23 be 24 d0 24 be 71 dd 99 3c 8b fa 77 3e
       -0.15927356 -0.16095024 0.01878235 0.24216668
000160 aa 0d 92 be 87 93 80 3e 3f 3f 9e 3e ae fe cd 3d
       -0.2852605 0.25112554 0.30907628 0.10058342
000170 0a 20 4a 3e 87 6c 30 3e 1b d7 1a bd ec ea 82 bd
       0.19738784 0.172289 -0.037802797 -0.06392464
000180 16 fd 73 be 32 59 5d be f2 86 c6 bd 4c 6b b2 be
       -0.23827013 -0.21616057 -0.096937075 -0.34847486
000190 c3 d8 93 3e 33 5c ae bc ee 73 4b bd 46 ea 0c 3e
       0.28876314 -0.021284198 -0.049671106 0.13761243
0001a0 46 59 25 be b7 a0 c1 3d 7e 35 59 be 95 e9 90 be
       -0.16147336 0.09454482 -0.21211812 -0.2830321
0001b0 cb 72 63 be 16 63 1f 3e cb ee 6e 3e 08 e8 7e be
       -0.22211759 0.15565142 0.2333328 -0.248932
0001c0 0d 88 84 be 37 a0 8e 3d c6 56 93 3e 99 9a 23 be
       -0.25885049 0.06964152 0.2877714 -0.15976943
0001d0 bf b6 89 be 23 29 86 3d b3 71 20 3e 72 f9 35 be
       -0.26897237 0.06550815 0.15668373 -0.17770937
0001e0 a5 1c 3d 3e 84 d5 b4 be 9e 43 ad be 30 9a 8f 3e
       0.18467958 -0.3531915 -0.3384065 0.28047323
0001f0 4a 84 93 be cd 82 9a 3e 3d a4 67 be e2 79 5e 3e
       -0.28811866 0.30177918 -0.22621246 0.21726182
000200 8a 5c 26 3e c4 65 e9 bc f0 bf 9c be b6 9b 29 3e
       0.16246238 -0.028490908 -0.30615187 0.16563305
000210 fd ee 91 3e 91 40 8f 3e 71 79 23 3e 49 a1 ba 3c
       0.28502646 0.27978948 0.15964295 0.022781985
000220 0d 7f 65 3e 4a 8d c5 be 35 4c a2 3d aa 17 1a 3e
       0.22411747 -0.38584358 0.079246916 0.1504809
000230 1a 9a 7e be 97 54 98 be ad f6 3b 3e f7 f3 8e bd
       -0.24863473 -0.29752037 0.18355818 -0.06980126
000240 c9 3e 64 be 59 97 6c be f8 14 82 3e fc 7f 47 3e
       -0.22289576 -0.2310461 0.25406623 0.19482416
000250 43 05 9b 3d 02 51 be bd d7 af 4d 3d 88 67 af be
       0.07569363 -0.09292795 0.050216522 -0.34258676
000260 c4 3e 0e 3e 41 51 9b 3d a5 5f 13 3e 37 5c a4 bb
       0.1389113 0.07583857 0.14391954 -0.0050158757
000270 b8 77 72 3d 0c a1 91 be d5 80 12 be a1 10 d3 3d
       0.059196204 -0.28443182 -0.14306958 0.10305906
000280 41 ae 65 3d 18 fb 97 be 78 c1 69 3e 6f 2b 43 3e
       0.056074385 -0.29683757 0.22827709 0.19059537
000290 2d 82 1e 3d 1c 9d df bc 4d 03 b0 3e 2e 53 72 be
       0.038698364 -0.027296595 0.34377518 -0.23664543
0002a0 42 a6 80 3e b5 63 09 be 76 90 3c 3e 02 06 90 bd
       0.25126845 -0.13416941 0.18414482 -0.07032396
0002b0 56 f4 37 3d 66 c8 37 3e de c1 aa be 20 d0 60 3e
       0.04491075 0.1794754 -0.33351034 0.21954393
0002c0 fa b8 20 3d 68 27 28 3e 4f 05 9f be 7b be 48 3e
       0.039238907 0.16421282 -0.31058738 0.19603913
0002d0 7a 68 2a 3e 17 52 41 3e 26 25 78 bd cb b5 f7 be
       0.16641417 0.18878971 -0.060582303 -0.48380885
0002e0 42 45 1f 3d e7 6c e2 bc 5a b3 b1 be cd e6 9e be
       0.03888441 -0.02763982 -0.34707147 -0.31035462
0002f0 69 14 95 3d d6 f9 6e bd f8 36 5c be 99 3a f7 3d
       0.072792836 -0.05834373 -0.21505344 0.120717235
000300 f1 f0 6c bd 88 0f 1b 3e ef 52 dc bd ed 7f 12 be
       -0.057846967 0.15142643 -0.10758006 -0.14306612
000310 da a5 28 3e fc 45 2a be b5 f6 d9 3c ec f0 67 be
       0.16469517 -0.1662826 0.026606897 -0.22650498
000320 36 a9 41 3e a9 67 f4 3d 5d ef 0b 3d 6c 8d 55 3d
       0.18912205 0.11933834 0.03416382 0.052136824
000330 de 4d 47 bd d9 bb 7d 3e 8e d7 20 be 5f 15 6f 3d
       -0.048658244 0.2477869 -0.15707228 0.05836999
000340 22 8f 93 bd 85 b2 09 3e 2a 52 81 be 7f c2 68 3e
       -0.07205035 0.13447006 -0.25258 0.22730444
000350 78 a1 7d 3d 3d 8f 35 3e 2f 7a 9f 3d c8 00 4c 3e
       0.061921567 0.17730422 0.077869765 0.19922173
000360 3f a4 8d be cb fb 8a be b1 06 f8 3b b4 22 49 3c
       -0.27664372 -0.27145228 0.007569157 0.01227634
000370 2a ef 4d be 71 22 d0 3d 47 c8 82 3e dd 96 80 3e
       -0.20110765 0.10162819 0.25543424 0.251151
000380 f2 cc 42 3e fc 7d 5f be 7c 07 a5 be f1 64 18 be
       0.19023493 -0.21825403 -0.32232273 -0.14882256
000390 fe 86 2b bd a0 c0 8e 3e b9 5e 1c be b3 c3 8c 3d
       -0.041876785 0.27881336 -0.15270509 0.06873264
0003a0 b4 bc 1d bc 5a 54 6f be 68 99 69 3e 4d 4b d6 bb
       -0.00962751 -0.23372021 0.22812426 -0.0065397383
0003b0 b3 97 89 be bb 08 ac be f3 37 86 be 13 d0 4c bd
       -0.2687355 -0.3360041 -0.2621456 -0.050003123
0003c0 e6 00 93 3e 64 e1 85 3e 33 16 30 be b8 5d 29 be
       0.28711623 0.26148522 -0.17195968 -0.16539657
0003d0 3e ad ec bd 63 0c 81 be 5b fe 08 3e ec 92 22 be
       -0.11556481 -0.25204763 0.13378279 -0.15876359
0003e0 71 a8 95 3e f4 3f 40 bd 85 84 07 3d 43 aa 27 3e
       0.29230073 -0.04693599 0.033085365 0.16373543
0003f0 ab 3f 4f 3e b4 8f e9 3d 0e a2 29 3e f1 fe 2c 3e
       0.20239131 0.11404362 0.16565725 0.16894127
