Machine-Learning/LungSoundTrainedFiles/my_model.tflite (tflite, 969128 bytes, 10 tensors)

sequential/conv2d/BiasAdd/ReadVariableOp f4 [24]
000000 01 2f fe ba 2a ee b6 bc bc 29 af bc 37 52 15 bc
       -0.001939267 -0.022330362 -0.021382205 -0.00911384
000010 ce 00 22 3d 04 d7 a4 3c 8b 7c 9e 3c da 15 ab 3c
       0.03955155 0.020122059 0.019346496 0.020884443
000020 60 1d 35 bd 76 60 5d 3b 0b c2 89 bc 3e f5 a0 bc
       -0.044217467 0.003377942 -0.01681616 -0.01964819
000030 fd f8 7f bc 25 13 b2 bc c1 1f b1 bc 0c b0 0c 3d
       -0.015623328 -0.021737644 -0.021621587 0.03434758
000040 7d dc e2 bb 0b e7 fe 3b 49 d1 b4 3c 1b 83 3d bc
       -0.006923257 0.0077790073 0.022072451 -0.0115669025
000050 42 93 0a bc 8f 41 8b bc 0b 5f 73 bb 7a c2 57 3c
       -0.008457961 -0.016999034 -0.0037135507 0.013168925

sequential/conv2d_1/BiasAdd/ReadVariableOp f4 [48]
000000 6d cd 42 bb fe 3c 42 bc d9 e8 12 3d 89 9b 99 3c
       -0.0029724494 -0.011855362 0.035866592 0.018750923
000010 8a b7 17 3c 38 9c bc bb 85 9c 54 bc 7f 71 10 bc
       0.009260068 -0.0057559274 -0.01297677 -0.008816122
000020 8f aa 32 bc 69 6d 18 bc bd 7d 05 3c f0 28 24 3b
       -0.010904922 -0.009303429 0.008147654 0.0025048815
000030 10 7a 61 39 c7 fb 83 bb e2 f0 de 3b bf 00 fe 3b
       0.00021503144 -0.004027817 0.006803618 0.007751554
000040 26 a6 ba bb b1 37 08 bc 18 a1 b3 bc 86 6b 4b bc
       -0.005696076 -0.008314059 -0.021927401 -0.012415772
000050 a6 cb ca 3b bb 16 39 bc a9 f9 40 3b 28 c3 e3 3b
       0.0061888276 -0.011296923 0.0029445684 0.0069507547
000060 3d e5 41 bc 5b e9 c5 bb c7 e1 b6 3b 4d be 25 3c
       -0.01183444 -0.006039781 0.005581114 0.010116172
000070 5a dd 82 bc 21 36 fc 3c ee 5a a7 bb d2 9a 15 bc
       -0.01597469 0.03078753 -0.005107275 -0.00913115
000080 84 6d 19 3a 17 f2 91 bb e3 94 57 3c 0a 67 70 bc
       0.0005852806 -0.004453908 0.013158056 -0.014673004
000090 ad 77 82 bb 8e c5 91 3c 11 b2 36 bb 90 16 98 bc
       -0.0039815516 0.017794397 -0.0027877132 -0.018565446
0000a0 62 11 90 3c bb ce 1e bc 69 76 19 bc 7d aa 72 bc
       0.017586414 -0.009692843 -0.00936661 -0.014811155
0000b0 74 93 34 bc e9 d9 26 3b 0e 98 d4 bb 5f b2 c6 bb
       -0.011021484 0.0025459474 -0.006487853 -0.006063744

sequential/conv2d_2/BiasAdd/ReadVariableOp f4 [48]
000000 29 92 6a bb 64 1f f1 3b 52 c9 37 3c 36 3d a6 3b
       -0.0035792685 0.0073584784 0.011217432 0.005073215
000010 e9 db a8 ba 97 dd 89 bb 6c 8c 30 3b fa e1 8b 3a
       -0.0012882921 -0.004207324 0.0026939167 0.0010672205
000020 45 3a 90 39 58 b5 da ba 52 c1 b8 3b 98 90 fe ba
       0.00027509234 -0.0016686125 0.00563828 -0.0019421754
000030 bf f6 a8 3b 43 fe 29 bb 96 f3 db ba 95 bf d2 3b
       0.0051563676 -0.0025938905 -0.0016780968 0.0064315298
000040 c4 15 90 3a bd 8a c2 3a 3f 1d 2c bc 8f 92 01 bc
       0.0010992815 0.0014842373 -0.01050502 -0.007908477
000050 53 94 6e bb fd 0e aa 3a cd 7f 66 bb 39 04 74 bb
       -0.0036404326 0.0012974438 -0.003517139 -0.0037233962
000060 2c af 81 bc 63 ed 0a ba 67 60 8f bb d3 ed c6 3b
       -0.015830599 -0.00052996556 -0.0043755057 0.0060708313
000070 0f 11 0f bb a5 a0 95 3b fd 10 99 bb fa 8a 18 ba
       -0.0021830236 0.0045662695 -0.0046712146 -0.0005819049
000080 ae 61 60 3b db a7 8e 3c ee 9c 13 3c c8 d2 0f bb
       0.003423791 0.017414024 0.009009583 -0.0021945704
000090 59 d8 1c bb fb 59 95 bb 72 30 52 ba 61 5b 1f bc
       -0.0023932664 -0.0045578456 -0.0008018083 -0.009726376
0000a0 1a 2d 15 3c a4 9b 0e 3c 7c 07 e8 bb f1 a5 5b 3b
       0.009104991 0.0087041 -0.0070809703 0.0033515657
0000b0 cc aa 15 3c f3 8b 46 bb 58 9c 4b b9 7a 3b a1 3b
       0.009134959 -0.0030295819 -0.00019417831 0.0049204202

sequential/conv2d/Conv2D f4 [24, 5, 5, 1]
000000 20 5a ee bc b7 e5 d0 bc d6 6e b5 bd 75 3e 0a bd
       -0.02909571 -0.025500162 -0.08859031 -0.03375097
000010 dc 76 b7 bd 6f 4e 97 3c e4 5f 28 bd 3c 9a 7e 3d
       -0.089582175 0.018470017 -0.041107073 0.062158808
000020 47 17 7e bb 64 21 64 bd 72 20 12 3d 9b 74 b0 3d
       -0.0038771199 -0.055695906 0.035675474 0.08615991
000030 ef 02 df 3d f4 f4 c7 3d ea c6 31 3d c2 61 dc bd
       0.108892314 0.09763518 0.04340259 -0.10760833
000040 fb ed 91 3d 81 45 af bd 21 d1 b6 3c 06 c9 c5 bd
       0.07125469 -0.08558179 0.022316517 -0.09657483
000050 d3 a3 a6 3c 4d 2c bc bd c5 e4 3c 3d 2a f8 14 bd
       0.02034179 -0.09188137 0.04611661 -0.03636948
000060 8e 69 38 ba 8f 13 f4 3b fc 60 fb 3b b5 58 55 3d
       -0.0007034772 0.0074486206 0.0076714735 0.05208655
000070 fd 9b 4f 3d 06 67 10 bd 48 92 10 3c c0 f4 c5 bb
       0.05068587 -0.0352545 0.008823939 -0.0060411394
000080 c7 5d af bd 87 19 14 bd 85 7f 20 bd 3b b9 69 3d
       -0.085628085 -0.036157157 -0.039184112 0.057061415
000090 96 df 5a 3d ec 34 ea 3d 26 f1 b0 bb 4a af f8 3d
       0.053435884 0.11435875 -0.005399841 0.12142809
0000a0 fc d6 a9 bd dc 62 4a bc c2 ff e5 3b 34 52 bd bd
       -0.08292958 -0.0123526715 0.007019014 -0.092441946
0000b0 2e 18 f0 bd f5 fc 5c 3b 1c 7f 30 3a 9c ef 57 bd
       -0.11723362 0.003372011 0.0006732808 -0.052718744
0000c0 36 31 8d 3c 94 8c 82 3d bb a8 c6 3d 13 9f 71 bd
       0.01723538 0.063744694 0.097001515 -0.058989596
0000d0 88 24 18 bd 2a 9e 00 39 68 3c 67 bc 4a c8 a1 bc
       -0.037144214 0.00012265952 -0.014113523 -0.019748826
0000e0 be 59 6e bc 12 20 c0 3d 6a 81 b0 3d 53 82 81 3d
       -0.014547763 0.09381117 0.08618434 0.063236855
0000f0 93 ed 94 bd 9a cc 7c bb ab 66 0d 3d 07 b6 bb 3d
       -0.07271876 -0.00385741 0.03452174 0.09165578
000100 50 c4 bd 3d cc 50 b6 bd 5a 1a fd 3c 3f f5 61 bd
       0.09265959 -0.089021295 0.030896354 -0.055165526
000110 e6 a8 6d 3c f7 ab 3a bd c9 cd 7f bd 60 ef 2c bd
       0.014505601 -0.045574155 -0.06245211 -0.042220473
000120 a4 b2 59 3b 7b a8 97 3d 45 bc 88 bd a1 17 8f 3c
       0.003321805 0.07405182 -0.066765346 0.017467322
000130 92 29 9e 3d e9 1d b6 ba 49 37 39 3d d8 7e 9b 3c
       0.07722773 -0.0013894412 0.04521874 0.018981382
000140 8a 42 eb bc 70 09 87 bd 7f 23 4a 3d b3 9c 96 bd
       -0.028718252 -0.06593597 0.049350258 -0.07354107
000150 5f ee 5f 3d 91 ce 90 bd 80 e7 0f bd 21 41 03 3d
       0.054670688 -0.070706494 -0.035132885 0.032044534
000160 8e 36 72 3d e3 d0 ed bc 02 85 a6 3d 33 fc 60 3d
       0.05913406 -0.029030269 0.08130838 0.054928016
000170 7c bd ed 3c 4b 32 a0 3b 98 d0 03 3d 45 58 f7 bc
       0.029021017 0.004888808 0.032181352 -0.030193457
000180 81 8d 4e 3d 17 a6 56 bc 02 5b 99 bd 57 b3 a1 bb
       0.050427917 -0.013101122 -0.074880615 -0.004934709
000190 85 27 63 bd 48 93 8b 3d e2 0a 1e 3d f8 82 45 3d
       -0.05545761 0.06815201 0.038584597 0.048220605
0001a0 dd 1b 86 3d e8 fa cd 3d 46 fb a8 3d 6a f6 8e 3d
       0.06548283 0.10057622 0.082510516 0.069805935
0001b0 4c 74 c0 bc d8 d3 09 bd 46 16 27 bd 94 77 64 bd
       -0.023492955 -0.033649296 -0.040792726 -0.0557781
0001c0 6c 40 b9 3c 6d 8a c9 bc 7b 69 9d 3d af 0c b1 bd
       0.022613727 -0.02460214 0.076861344 -0.08644997
0001d0 06 44 00 be bf 67 ee bd df 30 3c bc de 6e a7 3c
       -0.12525949 -0.11640882 -0.011486261 0.020438608
0001e0 bd d6 81 3c 74 e5 f0 bd f9 f9 57 bc 8a 85 b6 bd
       0.015849466 -0.11762515 -0.013182157 -0.08912189
0001f0 7b 2e 93 bd 56 34 f0 3d 19 93 7f bd 3b a0 9b 3d
       -0.071866 0.11728732 -0.062396143 0.07598921
000200 9b 4d b5 bd db 48 55 3c d6 27 27 be 3b a7 e3 bd
       -0.08852693 0.013017858 -0.1632379 -0.11115881
000210 70 f9 1c be 1d 42 de bd 3f 17 15 be ef 16 be 3d
       -0.15329528 -0.10852454 -0.14559649 0.09281718
000220 77 74 da 3c b1 74 9d 3d d8 b2 63 3c 3f 56 78 bc
       0.026666863 0.07688273 0.01389762 -0.015157281
000230 de ab 0d bc 72 dd a4 bd 3e 9c df bd 6b a4 80 bb
       -0.008646933 -0.0805005 -0.10918473 -0.00392585
000240 7f fd 99 3c 50 45 32 bd 0c 2f 7e 3c fd ce cf 3d
       0.018797634 -0.043523133 0.015514147 0.10146902
000250 52 82 4c bb 67 8c 79 bd a1 4c c9 bd bc 0d 11 bc
       -0.0031205607 -0.060924914 -0.09829069 -0.008853372
000260 67 27 74 3d 36 96 80 bd b6 a6 98 bd 3a db 7d bd
       0.05960789 -0.062786505 -0.074536726 -0.06197665
000270 11 71 df 3c f4 84 de bd 95 31 1e 3d 7c 79 58 bd
       0.027275594 -0.108652025 0.038621504 -0.05285023
000280 d4 1f 98 3c 88 94 81 3d a0 dc e3 bd ca 53 27 bd
       0.018569864 0.06327158 -0.11126065 -0.04085139
000290 4f 17 84 3d db d0 bf 3d 06 5f f5 3b f7 2e 05 bc
       0.06449758 0.09366008 0.0074881343 -0.008128873
0002a0 b3 5c 66 3c 66 9b 0a bd 18 c5 f3 3c d6 ad 0a bd
       0.014060187 -0.033839606 0.029757068 -0.03385719
0002b0 24 e8 18 bd ad ad 25 3d 70 fc 6a 3c 6f ce 55 bd
       -0.03733076 0.040448833 0.014342412 -0.052198824
0002c0 19 2d 4a bd 19 55 67 3d 0b be 4d bd 52 65 40 bd
       -0.049359415 0.05647764 -0.050230067 -0.046971627
0002d0 c2 24 9c bd 84 10 67 ba 47 48 26 3c 6d 8e a8 3d
       -0.076241985 -0.00088144117 0.010149068 0.082302906
0002e0 90 46 2b 3d a1 a2 c9 bd 5b 78 43 3c 83 db 82 bc
       0.04181534 -0.09845472 0.01193055 -0.015973812
0002f0 c4 d5 bc 3c fe 9d c9 bd 44 ee c0 bd 81 e2 a3 bd
       0.02305115 -0.09844588 -0.094204456 -0.080021866
000300 93 6e 9d bd 55 a0 99 bd d3 d2 e8 bd bd d9 e5 bd
       -0.07687106 -0.07501284 -0.113683365 -0.11223171
000310 08 72 de bd 53 d6 89 bd 37 03 c6 bd 41 65 5d bc
       -0.108615935 -0.06730332 -0.09668582 -0.01351291
000320 a6 0f 3e bd 42 09 32 3d 52 b5 5a 3c 36 eb 67 3d
       -0.046401642 0.04346586 0.013348894 0.0566208
000330 42 a4 77 bd 63 fd ad 3d 3d b4 47 3d 6f a7 3d 3d
       -0.060459383 0.08495595 0.048755873 0.046302255
000340 49 2d 46 3d 17 6e 90 bd ef bc 2a 3d 94 c0 cd 3d
       0.04838303 -0.07052248 0.041684087 0.10046497
000350 88 95 a3 3d f4 39 c6 bd cb 5f 1c 3c 73 15 4a 3d
       0.07987505 -0.096790224 0.009544323 0.04933686
000360 e9 0b d2 bc ac 1b bf 3c 62 b3 16 3c 73 61 63 bd
       -0.025640445 0.023328625 0.009198042 -0.055512857
000370 9d 94 7f bd 40 55 3d bc fd fd cd bd 54 e0 a4 bd
       -0.062397588 -0.01155597 -0.1005821 -0.080506
000380 98 3f d6 3c 0c 83 77 bd 29 5e 1c 3d 9d dd 45 bc
       0.02615337 -0.06042771 0.038175736 -0.0120767625
000390 f5 1b ca 3d 5e ea 52 bd 64 96 96 3c 3e 49 6a 3d
       0.09868614 -0.05149304 0.018382259 0.057198755
0003a0 b5 01 6b 3d 95 50 23 3d 1e d3 52 bd dc 06 aa bd
       0.057374675 0.03987177 -0.05147087 -0.083020896
0003b0 86 2b 11 3c bd 0a 9e 3d 45 08 5d bc a1 5c a6 3d
       0.008860474 0.07716892 -0.013490741 0.08123136
0003c0 cd 06 9f bd f4 f5 bd 3d f9 a5 65 3d 47 a2 8a bd
       -0.07764969 0.092754275 0.056066487 -0.06769233
0003d0 17 d7 07 3d a6 0d ec 3c 34 1e de 3d 63 84 91 bd
       0.03316411 0.028815102 0.108456045 -0.07105329
0003e0 d8 d0 cf 3d 16 38 42 bd c2 16 c1 bc 83 60 47 3d
       0.10147256 -0.04741677 -0.023570422 0.048676025
0003f0 b3 4f 0a 3d af c5 3d ba cc 8f 24 3d 8e ba 8b 3d
       0.033767413 -0.0007239235 0.040176198 0.06822692

sequential/conv2d_1/Conv2D f4 [48, 5, 5, 24]
000000 95 f7 f8 ba 20 01 aa 3c da cd 6e 3c 11 db 27 3c
       -0.0018994684 0.02075249 0.014575446 0.010245101
000010 a0 6f 52 3d cf 56 8e 3d b4 c9 4e 3d ed ff 5b bd
       0.051375985 0.06950151 0.050485328 -0.053710867
000020 5f 88 8d bb 95 62 5c 3d a9 9d be 3b 31 9d 34 bd
       -0.004319235 0.053804953 0.0058171344 -0.044095222
000030 8c 33 61 bd ea a6 c5 bc 27 87 35 3d 9c af 08 3d
       -0.0549808 -0.024127442 0.044318344 0.0333706
000040 6a 7f d5 ba 0a 8c d0 3c b2 d9 a5 3c fb 50 35 bd
       -0.0016288583 0.0254574 0.020245407 -0.044266682
000050 f3 33 4b 3d 73 95 ac bb f3 75 25 3d 52 95 34 bd
       0.04961009 -0.005266839 0.04039569 -0.044087715
000060 be 25 a1 bc 33 6d f1 3c 46 57 1e 3d 8a 66 18 3d
       -0.019671317 0.029471016 0.03865745 0.037207164
000070 e3 51 1d bd 95 0f 94 bc 72 a5 24 3c e0 ab c1 bc
       -0.03840817 -0.018073836 0.010049211 -0.023641527
000080 c3 74 41 3d 99 e8 1a bd 50 33 e7 3b 68 4e 52 3d
       0.047230493 -0.03781948 0.0070556775 0.051344305
000090 01 06 27 bd 17 b3 ad bc 20 75 38 3d 5c 6d 96 3b
       -0.04077721 -0.02120356 0.045033574 0.0045906734
0000a0 dc 6f 28 bd 89 3f 04 3d ed d3 e1 bc d5 13 7c bc
       -0.041122302 0.032287154 -0.027566874 -0.015385588
0000b0 ad 70 2f bd 54 3c 50 bd dd f8 1c 3d 75 94 db 3c
       -0.042832065 -0.050838783 0.038323272 0.026804188
0000c0 3e 7f b5 3c 82 0d b5 3b 83 6d 25 bc 23 fe 6b 3d
       0.0221554 0.005525292 -0.01009691 0.05761541
0000d0 0b 78 d2 bc 6e bb 19 3c 96 e4 7b 3c f0 1b 1c bd
       -0.025692007 0.009383066 0.015374323 -0.03811258
0000e0 25 a1 30 3d cd 96 4a bd 13 aa a4 3b a7 d5 28 bd
       0.04312243 -0.04946022 0.0050251572 -0.04121938
0000f0 b9 39 1b bd 64 b6 8c bb 96 b7 45 bd 53 24 20 bd
       -0.037896845 -0.0042942036 -0.048270784 -0.03909714
000100 0c e6 27 3d 89 18 11 3d 24 78 54 ba 68 21 1b 3d
       0.040990874 0.03542379 -0.00081050606 0.037873656
000110 e5 00 e9 bc 49 c9 3b 3d d9 10 12 3d 08 3e 79 bc
       -0.02844281 0.045846257 0.0356606 -0.015212543
000120 a8 0f ab 3c 7e c9 c5 bc 9f 8e b0 bc 9a 99 b4 3c
       0.020881489 -0.02414393 -0.021552382 0.0220459
000130 32 eb 69 bd e1 06 2e 3c 6c e8 cd bc 36 0b bd ba
       -0.057109065 0.010621757 -0.025135241 -0.0014422897
000140 4d 45 32 3d 01 0e 51 bd f7 ee c2 3c cf a5 e4 3c
       0.04352312 -0.051038746 0.023795588 0.027911095
000150 fa d0 50 3d d4 b8 ef bc 78 28 d4 3c 6e 1b f9 bc
       0.050980546 -0.029262938 0.025898203 -0.030408587
000160 f5 22 52 bd a0 21 23 bd ce 7f 8f 38 3c d5 22 bd
       -0.05130287 -0.03982699 6.842577e-05 -0.039754137
000170 37 c5 f1 3c c8 0e 67 bd e0 c7 65 bd cf 76 d9 3c
       0.029512985 -0.05641058 -0.05609882 0.02654591
000180 af 6a 69 bc ac 26 97 3b 5a 15 09 3c 22 13 37 bc
       -0.014246627 0.0046127643 0.008366907 -0.011173995
000190 e4 2d 11 3d de 9a 1c 3d ed b3 7d bc 08 37 83 bc
       0.035444155 0.03823363 -0.015484792 -0.016017452
0001a0 34 7b 59 bd 12 d2 03 3d dd c4 8c 37 05 ee c8 3b
       -0.05309601 0.03218276 1.6780972e-05 0.0061318898
0001b0 e1 21 65 bd 5a 0f 22 bb df e6 68 3d a3 93 03 3d
       -0.055940513 -0.0024728389 0.0568608 0.03212322
0001c0 0f 43 f2 3c 46 1d 53 bd 02 32 1c 3d bb 3d cf bb
       0.029572992 -0.05154159 0.03813363 -0.0063244975
0001d0 07 6b de 3c 25 98 59 3d 9f b6 dd 3c 20 84 de 3c
       0.027150644 0.053123612 0.02706462 0.027162611
0001e0 72 a0 7f bd 15 af ba 3c 2b 9a 1f bd 98 e1 cd bb
       -0.062408872 0.022788564 -0.038965385 -0.0062829964
0001f0 bb 72 8a 3c 6a f8 83 3d 8b ae da 3c a5 73 8e bd
       0.01690041 0.064438656 0.026694557 -0.06955651
000200 6e b5 6e 3d 3b 24 3d 3d 66 3c 1a 3b 24 91 4c bc
       0.058278494 0.04617713 0.0023534535 -0.012485776
000210 47 6a 93 3c 06 9b 00 3d af be 10 bd fa 4b c1 bc
       0.017995013 0.031397842 -0.0353381 -0.023595799
000220 03 23 d3 bc d8 e7 0c 3d 69 12 2b 3b 90 82 5a 3c
       -0.02577353 0.03440079 0.0026103503 0.013336793
000230 3b 4b 34 bd 25 7d 49 bc 6e 1a 96 bc 9d b9 51 bd
       -0.044017058 -0.012297903 -0.01832315 -0.051202405
000240 42 78 50 bc a0 23 d8 3c 09 5b 71 bd a2 93 4d 3c
       -0.012723984 0.026384175 -0.05892471 0.012547405
000250 10 b1 30 3c 4a b5 9e bc 96 0f 1a 3d 63 e2 42 bd
       0.0107844025 -0.019373555 0.03761252 -0.04757918
000260 78 8a 85 bb bc c6 18 3c 51 ee 16 bd 68 0e f7 bc
       -0.0040753447 0.009324726 -0.03684837 -0.030158237
000270 99 c1 0b 3d db a3 28 bd 96 53 dc 3c c1 f8 1f 3c
       0.034120176 -0.04117189 0.026895326 0.009763897
000280 1f 93 53 3d 04 7d 1f bd ba eb 5f 3d 2d 8a a5 bc
       0.051653977 -0.038937584 0.054668166 -0.020207489
000290 75 d1 37 3d d2 42 e9 ba 9b f1 04 3c 96 d7 34 3c
       0.04487749 -0.0017796403 0.008114244 0.011037728
0002a0 27 a8 29 bd 3f ba 06 3d b1 e2 d6 bc 66 6e 9d bb
       -0.04142013 0.032892462 -0.026231142 -0.0048044203
0002b0 1e a8 3f bd 76 4c 87 3d e4 f6 0f 3d f0 e5 9f b9
       -0.04679119 0.06606381 0.035147563 -0.0003049816
0002c0 cc 64 01 3d 73 a4 2d 3d 32 7a 87 bc 8e 15 85 3c
       0.031590268 0.04239316 -0.01653776 0.01624563
0002d0 32 64 49 3c 3a 3d 9e bb 71 d6 97 bb ef 12 28 3d
       0.012291955 -0.004829076 -0.0046337177 0.04103368
0002e0 08 f3 6e 3c 30 5d ea 3c c8 cf 79 3d b2 1c 73 3d
       0.01458431 0.028608888 0.06098917 0.059353538
0002f0 ec 84 d4 3c fb fc cf bc 60 d2 c6 3c 7e 4a 10 3d
       0.025942288 -0.025389185 0.024270236 0.03522729
000300 16 72 36 3d 72 79 c1 bc d7 72 2e 3d 81 d9 26 bd
       0.044542395 -0.02361748 0.04258999 -0.04073477
000310 c3 21 40 bd ad ff 33 3d 21 a6 9b 3c b6 76 56 bd
       -0.046907198 0.043945003 0.019000115 -0.052359305
000320 26 19 8d 3c 86 3f 2e 3d 7f 49 5c 3a e8 21 9d bc
       0.017223906 0.04254105 0.0008403286 -0.019181207
000330 86 af f3 3c 3b eb e7 3c 97 15 bd 3c d3 3d 61 3d
       0.029746782 0.028310409 0.023081584 0.0549906
000340 85 d3 ed 3c f6 91 48 3d 43 e1 2c 3d fb 7c 3e 3d
       0.029031524 0.048967324 0.042207014 0.04650591
000350 34 03 84 3c 86 91 f1 3c e2 14 29 3c 96 5a 0c bd
       0.016114809 0.029488336 0.01031992 -0.034266077
000360 31 a9 a8 bc 1b d7 6b 3d 04 a8 46 3d 85 77 0d 3b
       -0.02058849 0.057578187 0.048500076 0.0021586132
000370 07 44 7e bc 7d f7 58 3c 31 dd 77 3c 5a c1 97 bc
       -0.015519149 0.0132426 0.01512842 -0.018524814
000380 97 31 c8 bc fa 10 07 3c 30 8c 38 3d e0 8a 17 bd
       -0.024437709 0.008243794 0.04505557 -0.036997676
000390 77 64 71 3c 6c 4f 5e 3d 27 2e c0 3c 48 42 49 bc
       0.014733425 0.05427496 0.023459507 -0.012283869
0003a0 3e fa 3f 3d c4 d1 17 3d ed 32 79 3d 7f b9 cd bc
       0.04686951 0.037065282 0.060839582 -0.025112865
0003b0 b3 ae 04 3d a3 f8 30 3d 36 1b 65 3d a2 24 5c bd
       0.03239317 0.04320587 0.055934153 -0.053745873
0003c0 f4 6b b5 bc fa 3f 32 bd 62 f6 c6 bc c0 ea 2a bb
       -0.022146203 -0.043518044 -0.024287406 -0.0026079863
0003d0 f0 92 1f bd 8f 2c a0 3c 68 b0 bc 3c e6 e8 fd bc
       -0.03895849 0.019552497 0.023033336 -0.030994844
0003e0 ef 3a 93 bc 45 65 40 3d ca b8 a8 3b 72 19 34 bb
       -0.017972438 0.04697158 0.0051489817 -0.0027480987
0003f0 b3 76 1c 3b ff 23 c1 bc 9a 47 9f bb 19 06 17 3d
       0.0023874461 -0.023576735 -0.0048608305 0.03687105

sequential/conv2d_2/Conv2D f4 [48, 5, 5, 48]
000000 48 7e 18 bd ab e8 20 3d ad 8c 40 bd fb 00 c2 3b
       -0.037229806 0.03928439 -0.04700916 0.005920527
000010 73 e9 9a 3c eb 53 4c bd b8 f3 48 bd 91 7f 15 bd
       0.018910145 -0.049884718 -0.049060553 -0.03649861
000020 8f ab 05 b9 8c 0c 02 bd 18 a7 5a 3d 69 a9 08 bd
       -0.00012747779 -0.031750247 0.05338201 -0.033364687
000030 a5 02 50 3d 76 b9 3b bd 2b c4 4c 3c 44 74 04 3d
       0.050783772 -0.045831166 0.012497942 0.032337442
000040 8a f9 0b bd 7f 90 a3 ba 4f 1f 93 3a 94 d8 d4 b9
       -0.034173526 -0.0012478976 0.0011224541 -0.00040597154
000050 4c cd 78 3b 0d ed 0d bd 75 49 98 3b 48 9d 01 3d
       0.0037964163 -0.034649897 0.0046474286 0.031644136
000060 94 eb ca bc be 47 11 3d cb 71 4c 3d c8 b5 f3 3c
       -0.024770536 0.03546881 0.04991321 0.029749766
000070 90 76 b2 bb 56 d1 f0 3c f1 b3 4e bd f9 30 40 3d
       -0.0054462627 0.029396694 -0.050464574 0.046921704
000080 f9 6e fa bc 23 63 44 bd 4f be c3 bc 17 0f da 3c
       -0.030570494 -0.047946107 -0.023894457 0.026618524
000090 cc 71 e9 3c c1 81 3f 3c 6b ba 24 3d 25 f1 eb bc
       0.028496645 0.011688651 0.040216845 -0.02880151
0000a0 8e 8d 6f bc 50 d3 05 3d de f3 3d 3d fe ca 66 3c
       -0.014621152 0.032672226 0.046375148 0.014086483
0000b0 82 e0 19 3d b8 71 f4 3c 89 0a 89 3d 90 de d9 3b
       0.037567623 0.029839382 0.066914625 0.006648846
0000c0 57 34 e6 3c e4 50 f0 3c 06 9c f9 3c a0 2e b4 bc
       0.02810113 0.029335447 0.030469906 -0.021994889
0000d0 5b 10 d2 3c 22 8d 8e bc 87 3e 34 3c 0b f3 25 3d
       0.025642565 -0.017401282 0.011001236 0.040514987
0000e0 f8 9c 17 3d 39 a2 e4 bc 63 ba b8 3b 9f 04 a5 3c
       0.03701493 -0.027909385 0.0056374534 0.020143805
0000f0 d2 30 30 3b 77 d2 aa 3c 24 fa 2c bd 6b 7d 5a 3d
       0.0026884568 0.02085231 -0.04223074 0.053342264
000100 07 4d 6a bb 9a ef 12 3c 5f d7 41 3d 9e aa 05 bc
       -0.0035751478 0.008968258 0.047324535 -0.008158354
000110 a7 7c ce bc 1c 5e 1f bb c9 9d ff 3b 87 6e 87 3c
       -0.025205923 -0.0024317568 0.007800792 0.016532196
000120 79 d8 32 3d da ab 1b bd c3 63 5d bc bb e8 c5 bc
       0.043663476 -0.038005687 -0.013512555 -0.024158826
000130 24 de 44 bb bb dd 9d 3b b6 26 5a 3c 77 2b 3f 3c
       -0.0030039633 0.004817692 0.0133148935 0.011668078
000140 c3 0f 18 bc fb bf ff 3c e4 f4 62 3c b6 5b f1 3c
       -0.009281102 0.031219473 0.013852332 0.029462676
000150 bf 72 39 3b db b8 d5 bc 77 18 80 3c c2 05 9a 3b
       0.0028297154 -0.026089123 0.015636666 0.0047003934
000160 1f d4 06 bd e6 63 40 bd 94 11 da bc 21 86 2e 3d
       -0.03291714 -0.04697027 -0.02661971 0.042608384
000170 e0 b0 55 bd 06 b8 83 bc 94 34 ac bc b7 0d 4e 3c
       -0.052170634 -0.01607896 -0.021021165 0.012576512
000180 59 80 c9 bc 63 b8 b0 bc 93 04 cf bc c1 b9 0e ba
       -0.024597334 -0.021572297 -0.025270736 -0.00054445496
000190 0f 83 e5 bc 1a 75 25 3d 68 df 2f bd 31 92 af 3c
       -0.028016595 0.04039488 -0.042937666 0.021432014
0001a0 a7 e2 1f 3d 13 da 3e 3d 7c e8 2d bd 4e 39 74 3d
       0.039034512 0.04659469 -0.042458043 0.059624963
0001b0 a7 a5 f8 3c 7b 53 08 bb fb d7 5a 3d 54 16 0b 3d
       0.030352427 -0.0020801711 0.05342863 0.03395684
0001c0 24 01 3d 3d e6 78 4a 3d 2d d6 96 3c 76 bd 9a 3c
       0.046143666 0.049431704 0.018412674 0.01888917
0001d0 f3 af 2b bc 1e 9a bb bc 2c e1 b6 bc 69 95 3a 3d
       -0.010478961 -0.022900637 -0.022324167 0.045552645
0001e0 68 62 0b bc 78 ff 02 bd 76 38 24 3d 11 37 01 3d
       -0.008507349 -0.031981915 0.040092908 0.031546656
0001f0 b6 2b 2e bd ee 52 13 3d c5 79 60 bc 54 a6 6e 3c
       -0.042522155 0.03596776 -0.013700907 0.014566023
000200 7c b1 a6 bb 8a 56 fa bb d4 21 34 3d ae 0d b3 3c
       -0.0050870758 -0.007639711 0.043977574 0.021857109
000210 d3 65 f7 bc 57 fb b9 3c eb 3a f3 3b 5a 61 7f 3c
       -0.03019992 0.022702856 0.007422795 0.015587175
000220 93 8e 85 bc e5 80 e8 bb 6a a1 e3 3c 71 c9 09 3d
       -0.016303336 -0.0070954436 0.02778693 0.033639375
000230 3a 43 b6 bc 91 01 a6 bc ca 30 43 3d e1 e0 f8 bc
       -0.022248853 -0.020264419 0.04765395 -0.030380668
000240 4f 81 42 3c fc ad 49 bd 50 d7 2e 3d 55 93 de bb
       0.01187165 -0.04923819 0.042685807 -0.0067924657
000250 99 59 0d bd 0b 76 28 3c ba 9c 81 bc fd 92 1f bd
       -0.034509275 0.01028205 -0.015821803 -0.03895854
000260 63 93 0e bc 4a e6 31 bc 6c 6e 58 3c 0c 86 2c 3d
       -0.008702132 -0.010858128 0.01320992 0.042120025
000270 0b f6 64 3d d5 22 e8 3c af ba 93 3c 4c 20 88 ba
       0.055898707 0.028336922 0.018033354 -0.0010385602
000280 04 ed 47 bc 3b 1a 7d bc f6 46 96 3c 15 56 f2 3c
       -0.012202505 -0.015448148 0.018344384 0.029582063
000290 a5 38 ec bc d2 a4 12 bd c1 9d f2 39 77 ff d9 bc
       -0.028835604 -0.035801716 0.00046275373 -0.026611073
0002a0 cb 07 10 3d b7 bb 45 bc 5c 02 f5 3b 4f 2d 4a 3d
       0.035163682 -0.0120686805 0.007477088 0.049359616
0002b0 59 a1 a1 bc 43 6e 72 bc e7 53 d8 3b f4 cc 6b 3c
       -0.019730257 -0.014796796 0.006601799 0.014392126
0002c0 8b a2 ce 3c fb 7e 0f bd 74 31 3f 3d 9f 70 3e bd
       0.02522399 -0.035033207 0.04667802 -0.046494123
0002d0 4a 34 f3 bb 40 39 54 3c 60 6f 40 3c df a3 48 bd
       -0.007422005 0.012953103 0.011745304 -0.048984405
0002e0 d2 98 26 bb 1e 64 7a bd ed 47 2a bd 11 f1 6f ba
       -0.0025420678 -0.061130635 -0.0415725 -0.0009153048
0002f0 25 90 f7 3c da ec 52 bd 55 8b ad 3c 21 64 e6 3b
       0.0302201 -0.05149541 0.021184603 0.0070309793
000300 69 fa ae bc 95 e0 29 3c 43 05 18 bd 70 f0 38 bd
       -0.02135964 0.010368486 -0.037114393 -0.045151174
000310 57 db 25 3d cd be ac bc c7 a9 d6 bc 11 8c ab 3b
       0.040492382 -0.021087075 -0.026204003 0.005235203
000320 37 07 3d 3c 0f de d5 ba bd 5d 8f 3c 25 47 40 bc
       0.011537365 -0.0016316789 0.017500753 -0.011735712
000330 66 e9 bb 3c 47 13 3a 3d 7e 34 45 3c 93 f3 9d bc
       0.022938441 0.04542854 0.012036441 -0.019281184
000340 6e 17 30 bc 52 c2 0e 3d 37 7f 3a 3d ec 80 49 bd
       -0.010747774 0.034853287 0.045531478 -0.049195215
000350 3a 11 c4 bb 54 7d 1b 3d 94 a6 1c bc 24 3c 3e 3a
       -0.005983499 0.03796132 -0.0095612 0.00072568865
000360 3b 29 48 bd 5c 9b 11 3d 7f 22 a4 3b 7e 10 36 3a
       -0.048867445 0.035548553 0.005008995 0.00069452066
000370 8b 43 e9 3a 20 63 2f bd 43 42 8e bd 7a 0c 65 bc
       0.0017796619 -0.042819142 -0.06946232 -0.013980025
000380 c7 bf f1 bc ae 5a 97 bc 35 c2 1e 3d 5d ba 25 bd
       -0.029510392 -0.018475857 0.03875943 -0.040460933
000390 52 54 c0 3b be 1c 82 3c 66 d1 ef bc 08 63 ed 3b
       0.0058694268 0.015882846 -0.029274654 0.0072444715
0003a0 1c a4 ee 3b 05 34 37 bd 99 e1 ac bc de 8d c3 3c
       0.007282747 -0.044727344 -0.021103667 0.023871358
0003b0 63 fb 20 3d 41 96 1f bc d5 54 93 3b 32 34 a8 bb
       0.03930224 -0.009740413 0.0044961968 -0.0051331753
0003c0 9f 8b 31 bd 69 86 d8 3c dd 99 88 3c ce e1 e9 bc
       -0.043346044 0.02643128 0.01667493 -0.028550055
0003d0 14 b5 89 bc c5 63 3d 3d 44 8d 13 3d c0 4a 6c 3d
       -0.016809978 0.046237726 0.036023393 0.057688475
0003e0 4f 79 ad bc e9 42 13 b8 ab 3b 13 3d bf a1 7e 3d
       -0.021176009 -3.5109846e-05 0.035945576 0.06216597
0003f0 5f 81 f2 3c f1 a8 80 bb ce e4 51 bc 47 86 ac 3d
       0.029602705 -0.0039263894 -0.012810899 0.08424049

sequential/dense/BiasAdd/ReadVariableOp f4 [64]
000000 6c 22 8a 3b 7a 50 b0 3b a8 e0 d8 3b cc 24 ed 3b
       0.004215529 0.0053806873 0.006618578 0.0072370525
000010 73 bf 22 3c 3a f5 87 3b 13 5c 53 3c 39 2d 73 bb
       0.00993334 0.0041491063 0.01290037 -0.0037105812
000020 37 0b 58 bb 02 63 a8 3b cd 52 71 bb d8 00 39 3c
       -0.003296567 0.005138756 -0.0036823035 0.011291705
000030 76 3d 87 3c d2 90 8a 3b a3 0f 15 3b fd 5d 14 ba
       0.016508799 0.0042286897 0.0022744916 -0.00056597573
000040 f2 13 98 bb 41 bf 39 3c 3b 83 ea 3b 13 8b 0d 3c
       -0.0046410495 0.011337102 0.007156757 0.008639115
000050 37 fb 3f bb 16 dc 48 3b 18 9d a2 bb a8 22 fd 3a
       -0.0029294023 0.003064876 -0.0049625747 0.0019312697
000060 0f cf 48 3c 5f fe 2f bc d4 dd 4a 3c 69 73 e7 3b
       0.012256398 -0.010741799 0.0123819895 0.0070633185
000070 3f b7 43 3c 74 e1 7f 3c 38 89 e9 38 ad da 2f bb
       0.011945545 0.015617717 0.00011135865 -0.0026833222
000080 bc 64 7b ba f8 f7 04 39 50 19 72 3b b2 db 47 bb
       -0.0009589901 0.00012680877 0.0036941357 -0.003049594
000090 7b 40 42 bc 65 1c 52 3a ec 50 ca 3b 3b 56 df 3a
       -0.011856194 0.00080150954 0.0061741974 0.0017039248
0000a0 23 8c 0d bc 50 6d dc 3b b9 f1 1a 3c 2b 05 19 3c
       -0.008639368 0.0067268983 0.009457045 0.009339611
0000b0 b7 36 99 3c 3a 28 cd 3b b9 da 87 3c d6 94 ef 3b
       0.018702848 0.006260899 0.016583787 0.007311444
0000c0 07 a7 b7 bb 5c 98 55 bc 7f 06 0e 3c 9e 77 fc 3b
       -0.005604628 -0.013036814 0.008668541 0.007704689
0000d0 4c a8 ef 3b 1e c5 90 3c ca df 22 bc bc 62 07 bc
       0.0073137637 0.017672118 -0.009941051 -0.008263286
0000e0 98 b9 58 bc 15 0e 82 bb 17 d9 86 3b cd 2d f5 3b
       -0.013227843 -0.003968964 0.0041152346 0.0074822665
0000f0 2a 33 22 3b 98 43 59 ba ce 77 b4 3b 36 7f 19 3c
       0.0024749734 -0.00082879653 0.005507446 0.009368708

sequential/dense_1/BiasAdd/ReadVariableOp f4 [8]
000000 ac 5b 02 be 5b e5 f1 bd 98 11 19 bc a3 85 3b bb
       -0.12730283 -0.11811324 -0.009342574 -0.002861359
000010 8d 7f e4 3b 5f 08 43 bd d5 59 08 3e 4f b7 81 3d
       0.006973213 -0.047615405 0.13315518 0.063337915

sequential/dense/MatMul f4 [64, 2400]
000000 d8 fc b0 bc 90 fd 62 3d 3b ca be bc 17 40 22 3d
       -0.02160494 0.055417597 -0.02328979 0.039611902
000010 a0 9c 1b 3b 66 9e 6e bd 05 3a b9 3c a3 29 0e 3d
       0.0023744479 -0.05825653 0.022610674 0.034707677
000020 36 f3 44 3b b1 ee fc bc 07 e3 f3 3c 0a f2 23 bc
       0.0030052192 -0.030875536 0.029771341 -0.010006437
000030 a5 73 f7 3c 2d 89 9f bc c9 3c 5f 3c e2 0c ff 3c
       0.03020651 -0.01947459 0.013625332 0.031134073
000040 c3 a9 95 3c 22 91 32 3d 6d 30 a9 3c a9 1a 06 3c
       0.018269425 0.04359544 0.020652974 0.008185067
000050 f8 ec 45 bd 7e 11 92 3c ff 4e 54 3c 42 d9 c9 3c
       -0.048321694 0.017830607 0.012958287 0.02463973
000060 fc 93 a8 3c 85 8b ae 3c 66 12 cf 3c 7b 20 ea 3c
       0.020578377 0.021306762 0.025277328 0.028579941
000070 15 45 80 3d 9c 93 3c bd a0 d3 40 bd f5 d9 70 bb
       0.06263176 -0.04603921 -0.04707682 -0.0036751006
000080 ce 19 08 3c 27 6e c1 3d 2e 16 87 bd 83 d4 97 bc
       0.008306934 0.09444838 -0.06596027 -0.01853395
000090 03 47 22 3c be a2 35 bd e1 d7 cf bc c9 a7 9c b9
       0.009904626 -0.044344656 -0.025371494 -0.00029879648
0000a0 5a f2 62 3a 71 1c 5d bc 53 61 99 bb 92 74 88 3c
       0.0008657329 -0.0134955505 -0.0046807914 0.016657148
0000b0 91 0d 9a 3c 42 88 41 bd 57 dc 23 bd 31 cf 0f 3d
       0.018805297 -0.047249086 -0.040005054 0.035109702
0000c0 49 02 04 bd 47 19 9f bb 24 36 56 bc 2f d7 83 bc
       -0.03222874 -0.004855308 -0.013074432 -0.016093818
0000d0 cb 91 ec 3c 06 04 14 bb d9 81 0f 3d a8 4e 71 bc
       0.028878113 -0.0022585406 0.03503594 -0.014728226
0000e0 28 98 05 3d 4e 3d ea 3c 23 b0 2b bc c7 89 2b 3d
       0.03261581 0.028593685 -0.010479006 0.04187944
0000f0 51 5a 8e bc 8b 55 17 bd bf 49 f0 b9 3e c5 f9 3c
       -0.01737705 -0.036946815 -0.00045831312 0.03048956
000100 d6 71 d2 3c a9 82 78 bc 7e e9 87 bc 26 4a b4 3c
       0.025689047 -0.015167871 -0.01659083 0.022008013
000110 0c a8 4e bc 49 37 92 bb 07 fd 2d bd 6b 65 3b 3d
       -0.012613308 -0.004462157 -0.042477634 0.045751017
000120 20 f5 80 3d 38 0f 18 3d 9c 87 4b bc e5 60 1f bd
       0.06296754 0.03712389 -0.0124224685 -0.038910765
000130 01 ac 17 bd 2e dd ff bc 30 aa c5 bc f9 d0 05 bd
       -0.03702927 -0.031233396 -0.024129003 -0.032669995
000140 ac 28 28 3d 33 95 06 3d e2 97 a4 bc ee 2f 18 3c
       0.041054413 0.03285713 -0.020091955 0.009288771
000150 ae 3e 96 bc 81 8f 2c 3c e3 83 2a bc 1e a1 26 bc
       -0.018340435 0.010532261 -0.010407421 -0.010170249
000160 34 25 c2 bc 85 0c ba 3b 18 df f8 bc 47 3a 5e 3d
       -0.02369938 0.005677762 -0.030379817 0.054254796
000170 3a 5c 92 ba 0b 80 68 bc 20 22 88 bc 19 0f 53 3d
       -0.0011166402 -0.014190684 -0.016617835 0.05152807
000180 7d 3a ad bc 1d 6b 96 bc 5e c7 e6 b8 e0 06 06 bc
       -0.021146053 -0.018361622 -0.0001100439 -0.00818035
000190 c8 76 aa 3c 9b ff a5 bc a4 11 53 3c 2d c0 85 bc
       0.020808592 -0.020263484 0.012882624 -0.016326988
0001a0 68 6f fc 3b 2a 75 d2 bc 5b c5 17 3d 7c ce 48 bd
       0.0077037103 -0.025690634 0.037053447 -0.049025044
0001b0 10 6b 33 3d 9c 0b 01 bc 0f 72 fd 3c a6 71 5f 3d
       0.043803275 -0.007876303 0.030938176 0.054551743
0001c0 49 bd 51 3d 6f c2 83 3d 4a 56 ad bc ca 4f 2c bc
       0.051205907 0.0643357 -0.02115931 -0.01051707
0001d0 55 dc 94 bc 7d cb dd bb 04 f0 46 3d 5d 5d 29 3c
       -0.018171469 -0.0067686425 0.04856874 0.010337201
0001e0 0f bd 92 3d 19 20 11 3d c1 50 6c bc b2 98 ab 3c
       0.07164966 0.035431 -0.01442355 0.020946834
0001f0 6e 1a f9 bc 1b 8f b5 bc b4 53 ac 38 16 72 10 3d
       -0.03040811 -0.022162965 8.21719e-05 0.03526505
000200 f5 61 9c 3b 6f 03 82 3c 41 37 ed 3c e4 70 10 3b
       0.0047724196 0.015870778 0.028957011 0.0022039944
000210 ac 01 88 bb aa b5 c2 3c 8d d5 dc 3c 8c 3d ee 3c
       -0.00415059 0.023768265 0.026957298 0.029082082
000220 5d 97 4b bc e9 5d cc 3b 61 34 b9 bc b4 45 27 3d
       -0.012426225 0.006236781 -0.022607984 0.04083796
000230 a7 18 50 bc 7c 91 b5 bc b0 19 17 3d 34 39 ee 3c
       -0.01270119 -0.022164099 0.036889732 0.029080011
000240 fa 82 0c bc d3 ae 1c 3d e9 bd e8 bc e2 b4 2d bd
       -0.008576149 0.038252663 -0.028410869 -0.04240883
000250 61 fd c3 ba 3e a3 f4 bc 19 47 3f 3d 95 49 38 bc
       -0.0014952832 -0.029862996 0.046698663 -0.011248012
000260 ad 6b fb 3b ad 46 ff 3c 7b bf 06 bb fb 55 d1 bc
       0.007672748 0.03116163 -0.0020560909 -0.025553694
000270 50 f9 d5 3c 91 2e f6 bc 2d ca 11 3d b8 9e 73 3c
       0.026119858 -0.030051501 0.0355932 0.0148693845
000280 a4 9f 9c bc bd ec bd bc 13 7e a9 3c dd c6 79 3d
       -0.019119091 -0.023184175 0.02069 0.060980666
000290 00 f2 af 3b ae ca a6 3a 96 2e 23 3d 50 f5 08 3d
       0.005369425 0.0012725198 0.03983935 0.033437073
0002a0 eb 44 1d bc fb 92 1c bd ae 40 29 bd f1 c1 82 bc
       -0.009598951 -0.03822611 -0.04132145 -0.01596162
0002b0 5a 0d 75 bd cb 97 32 b9 85 9c 0e bd a6 1b 45 3d
       -0.059827186 -0.0001703195 -0.034817237 0.04812207
0002c0 e8 be f4 3c 6e f4 af 3c 2f 57 fd bc 3a 2b 41 3d
       0.029876187 0.021478858 -0.030925361 0.047160365
0002d0 34 9e 40 3d 19 99 3d 3c ea ca 80 3d d8 63 7b 3d
       0.047025874 0.011572146 0.06288703 0.061374515
0002e0 2e be 8f bc 54 87 ff 3c 40 1f 4c bc 3e 44 3e 3c
       -0.01754674 0.03119246 -0.012458622 0.01161295
0002f0 ec 2e 12 3d 3e 47 de bb 6f 6e 0e 3c 54 fc 2c 3a
       0.03568928 -0.006783395 0.008693322 0.0006598879
000300 fe f0 8b bc a5 31 e6 bc 0a 17 40 3c f3 92 14 3d
       -0.017082687 -0.028099844 0.011724243 0.036272954
000310 fb 62 1b 3c c1 63 42 bd c3 b4 06 3d 2d ed 92 3c
       0.009484048 -0.047458414 0.03288723 0.01793536
000320 e9 03 ac bc bd dd 10 bd 27 53 6f bc c5 ab 1a 3d
       -0.020997958 -0.035367716 -0.014607227 0.03776147
000330 b3 b9 81 bc 8a d8 0c 3d a9 62 1a bd 1d 6d 0f 3c
       -0.015835619 0.034386195 -0.037691746 0.008754042
000340 70 96 47 bd 32 13 09 3d c1 66 7d 3c bf 48 8e 3d
       -0.048727453 0.03346557 0.015466393 0.06947469
000350 67 30 1b 3c 24 d3 19 3d 96 52 9a bc 5d 2f e0 3c
       0.009471989 0.037554875 -0.018838208 0.027366335
000360 cf c9 c5 3b 5e 67 ff bc 09 35 26 bd 98 04 0f bd
       0.0060360203 -0.031177219 -0.040577922 -0.03491649
000370 29 0f 85 bd a6 9a 02 3d b8 a5 74 bc 0d b8 c7 3c
       -0.06497032 0.031885765 -0.014932089 0.024379754
000380 33 37 58 3d bb 23 6c 3d 43 6e 86 bd 4a 85 30 bd
       0.052787017 0.057651263 -0.065639995 -0.043095864
000390 58 3e e2 bc 8f e7 2d bb e1 2f d1 3b 9c f2 47 bc
       -0.027617618 -0.0026535725 0.0063838814 -0.012203839
0003a0 32 05 08 3d 48 df 69 3d 23 0e e0 3c 88 77 3c 3d
       0.03320808 0.057097703 0.02735049 0.04601243
0003b0 31 42 d0 3b f0 72 2a bc 3f ea 12 bd 64 a6 89 3c
       0.006355547 -0.01040338 -0.035867926 0.016802974
0003c0 72 49 0a bd 6d 3f 83 3c a2 64 6c 3c f4 af 43 3c
       -0.03376145 0.016021455 0.01442829 0.011943806
0003d0 55 b6 60 3d 72 48 10 3c 6d a9 36 3d 4b 37 9d 3d
       0.054861385 0.008806335 0.04459517 0.07676562
0003e0 3c 86 3b bc f0 e8 ee bc b3 f4 80 bc 46 a2 a0 3c
       -0.011445578 -0.029163808 -0.015741682 0.019608628
0003f0 43 1f 2e bd 9f e8 35 bd 67 26 33 3c 0d e5 75 3c
       -0.042510282 -0.044411298 0.010934449 0.015008223

sequential/dense_1/MatMul f4 [8, 64]
000000 1a 62 f7 3d 3f 7d 6e bd 63 73 b1 3d 3f 99 91 be
       0.12079258 -0.058224913 0.086645864 -0.2843723
000010 2a d9 70 be 93 59 36 be 79 a4 84 bd 96 e9 18 be
       -0.23520342 -0.17807607 -0.06476683 -0.14932856
000020 a9 c6 6d be 45 96 9b bd 25 15 ff bb e5 5f bb bd
       -0.23220314 -0.07597021 -0.007784503 -0.0914915
000030 7a af a4 bd 40 e1 38 3e a1 51 6f 3e 4d e2 43 3e
       -0.08041282 0.18054676 0.23370983 0.19129296
000040 f8 ca 66 3e d3 1d ca bd d0 fe 26 3e 77 de 63 3c
       0.22538364 -0.0986897 0.16308141 0.01390802
000050 9c d0 36 bc e0 77 c7 bd bc 8e 97 be 6f 5e 81 bb
       -0.011158135 -0.09739661 -0.29601085 -0.003948025
000060 b1 5c a4 be 3d c5 f0 bd 42 b5 82 be 79 94 91 3e
       -0.32101968 -0.1175637 -0.25528914 0.28433588
000070 0d fd 49 be d5 b4 07 be 1f 66 a4 3d ae 3e 4c 3e
       -0.19725437 -0.13252576 0.080272906 0.19945785
000080 78 56 38 3d 26 a1 5d 3d 4e f4 fe 3d 76 8a 76 3e
       0.045004338 0.05410876 0.12448941 0.24076256
000090 18 d6 5c 3e 31 17 6a bd 5e 18 de 3d fe 19 ea 3d
       0.21566045 -0.057151023 0.108444914 0.11430739
0000a0 98 9f 88 3e 1b 69 cf bd 84 83 05 3e a3 0a 86 be
       0.2668426 -0.10127469 0.1303845 -0.2617999
0000b0 f9 10 8c be 7c c9 4b 3e 8a 6e 4e be 26 c7 1c be
       -0.273567 0.19901079 -0.20159355 -0.15310344
0000c0 a2 7e b6 3c 18 fd 88 3e fc 77 9f 3c 5a 10 a3 be
       0.02227718 0.26755595 0.019466393 -0.31848413
0000d0 e4 fb d3 bd a5 d2 e3 3d 8e 5c 44 be af 9b 1b 3e
       -0.10350779 0.11124162 -0.19175932 0.15196107
0000e0 ac 7e 5a 3e 42 74 66 be bf b5 13 bd 5e 68 86 3e
       0.21337384 -0.22505286 -0.036062 0.262515
0000f0 05 a5 43 bd 2d 5e b2 bc a2 c7 43 3d 99 9c 55 3e
       -0.047764797 -0.021773422 0.047797807 0.20860519
000100 a0 04 a1 3d da 05 94 be 6f a7 2d 3e 55 63 85 3e
       0.0786221 -0.28910714 0.16958402 0.26052347
000110 16 65 9d be 33 4c 6d 3e 61 e6 c0 bd 74 5f 54 3e
       -0.30741185 0.23173599 -0.09418941 0.20739537
000120 4d 70 f9 3d 17 ba ba bd 2b e3 54 3e f7 1d 83 be
       0.12179623 -0.09117525 0.20789783 -0.256088
000130 e4 08 84 3d de df 81 3e 70 9d 3c bc 1e 8a 0e 3e
       0.06447008 0.2536611 -0.011512145 0.13919875
000140 4a f1 8d be c2 90 43 bd e1 95 57 be cf e7 c0 bd
       -0.2772315 -0.047745474 -0.21053268 -0.09419214
000150 03 51 c5 bd 5c e4 68 be 75 ea 58 3e 90 05 6d 3e
       -0.096345924 -0.22743362 0.21183188 0.23146653
000160 f8 60 e3 3d 17 58 6a 3e e9 61 95 be ce 2a 9a bc
       0.1110248 0.22885166 -0.29176262 -0.018819239
000170 60 fc 80 bd 5a bc ba be 64 07 3b be 10 13 1f 3e
       -0.06298137 -0.36471826 -0.18264538 0.15534616
000180 67 16 74 3e 43 18 94 3c 67 5b 3b 3c f8 51 93 be
       0.23836671 0.018077975 0.011435366 -0.28773475
000190 5d 33 73 3e bd e3 d9 bd ea c1 86 3e 3f 35 54 be
       0.23750062 -0.10639141 0.2631982 -0.20723437
0001a0 3c 42 7a be 7e ff 14 3e e8 fe 5b be 10 f8 46 3e
       -0.24439329 0.14550588 -0.21483958 0.19430566
0001b0 74 9c ad 3c 2d f0 9b be a8 bb 9b be 83 fa 8c bb
       0.021192767 -0.30456677 -0.30416608 -0.0043023243
0001c0 a0 03 67 3e 40 97 0f 3d 5e cf 12 3e 72 b0 f3 3d
       0.22559977 0.035056353 0.14336917 0.11898889
0001d0 46 72 17 be f1 17 04 3e 06 1a f5 3c e3 7d b8 3d
       -0.14789686 0.12899758 0.029919636 0.09008386
0001e0 da e3 8c 3e f2 58 52 be c0 d5 8c 3d 53 40 fe bb
       0.27517587 -0.20541742 0.06876707 -0.007759133
0001f0 c5 aa 4f 3e da d8 95 bd 35 72 9f be 63 54 74 be
       0.20279987 -0.07316752 -0.3114182 -0.23860316
000200 ba 8b 9e bd 78 46 8a 3d 2e 0a 39 3d 11 80 64 be
       -0.077414945 0.06751722 0.045175724 -0.22314478
000210 27 a1 4c be 58 34 a1 bd a9 73 8a 3e 14 98 84 3e
       -0.1998335 -0.07871312 0.27041367 0.25897276
000220 3f 41 22 be c6 5d 58 3e 28 a7 08 be 5c 47 a5 be
       -0.15845202 0.21129522 -0.13345015 -0.32281005
000230 6b 5f 3c 3e 54 ae 1e be 15 ff 82 3e 5d 6d ff bc
       0.18395774 -0.15496188 0.25585237 -0.031180078
000240 a3 dd a8 ba cd 96 b5 bd 93 e0 93 be cd ee 2b 3e
       -0.0012883436 -0.088666536 -0.28882274 0.16790314
000250 15 2b 42 3c 3b 04 81 3e 7e 3c aa 3c b3 d9 4e be
       0.011851092 0.2519854 0.020780798 -0.20200233
000260 87 8d 0d be 14 2b 5a 3e cd 0a 32 3d d8 40 5b be
       -0.1382352 0.21305496 0.04346733 -0.21411455
000270 68 29 8d 3c 5e 96 20 3e 40 93 58 bd d1 54 55 be
       0.017231658 0.1568236 -0.052874804 -0.20833136
000280 6b 47 86 3e 02 46 66 3e bd 2c 7e be 05 7d 3b be
       0.26226363 0.22487643 -0.24821754 -0.1830941
000290 0b 24 49 bd b7 c2 ea bd 2c 12 3c be 67 3a 85 be
       -0.04910664 -0.1146292 -0.18366307 -0.2602112
0002a0 99 f0 57 bc 2b 41 e3 bd ca 41 89 bd 4a 82 6e be
       -0.013179922 -0.11096414 -0.067020014 -0.23291889
0002b0 a3 ff a5 3d 95 db 51 3e 61 76 c3 3d 35 aa 3b bc
       0.081053995 0.2049392 0.09544063 -0.011454155
0002c0 62 a2 73 3e 5d 9f 95 bd e0 87 44 bd ba fd 97 be
       0.23792413 -0.07305787 -0.047981143 -0.29685766
0002d0 12 d4 52 be 95 bc 53 bb db c9 e9 3d a9 b2 74 be
       -0.20588711 -0.0032308449 0.11415454 -0.23896278
0002e0 6a e6 97 be a6 ba db bd a5 c7 7a be f3 df 6d be
       -0.2966798 -0.1072896 -0.24490221 -0.23229961
0002f0 47 37 75 3e 0b 29 1b 3e 7b 1a ec bd 6d ee b1 3c
       0.23946868 0.15152375 -0.11528488 0.021720136
000300 1e d0 97 3e 5d 48 12 be 5a fd 71 be 35 d6 8e be
       0.29650968 -0.14285417 -0.23631802 -0.27897802
000310 e1 fb 83 3e a9 42 49 3e b2 e6 ed bd 45 7e 58 be
       0.25778106 0.19654335 -0.11616267 -0.21141918
000320 91 14 22 3e 32 66 f6 3c 46 ab 81 3e 4d fd 87 be
       0.15828158 0.030078027 0.25325984 -0.2656044
000330 ed 3f 91 be df 5e 09 3e 9a e9 c2 bd f5 4f 0a be
       -0.28369084 0.13415097 -0.09517212 -0.13507064
000340 76 cc 45 be ec eb 4b 3e 85 1b 0f be fa 33 3e be
       -0.19316277 0.19914216 -0.13975342 -0.18574515
000350 fc 62 9a 3d 8a 52 3d 3e 01 63 81 3e 40 a3 99 3e
       0.07538411 0.18488517 0.25270846 0.30007362
000360 42 5c d1 bd b2 aa 47 3e b8 a1 df ba ce f3 4a 3d
       -0.10222675 0.19498709 -0.0017061746 0.049548917
000370 e4 b6 30 be 82 04 21 3e ad da 46 be dd ad 64 3e
       -0.17257267 0.15724376 -0.19419356 0.22331949
000380 e1 0c 61 3d 23 42 91 be 58 e0 d5 bc a2 e3 88 be
       0.054943923 -0.2837077 -0.026107952 -0.2673617
000390 b4 4c 54 3e 1d bd 77 3e af 62 2c 3d c9 b3 b3 bd
       0.20732385 0.24193235 0.0420863 -0.08774526
0003a0 3a 8f 60 3e 7b e5 4f 3e 7d 21 b4 bd 55 69 06 bd
       0.21929637 0.20302384 -0.0879545 -0.032815296
0003b0 7d a9 44 be 8b 49 62 3e 1a 41 5d be 8f cb 3e 3e
       -0.1920528 0.22098367 -0.21606866 0.18632339
0003c0 43 fc 19 bc a7 97 7c 3e 08 b2 22 bd 9d 79 00 bd
       -0.009398523 0.24667226 -0.039720565 -0.03136598
0003d0 08 ad 66 be 8d c3 c4 bd 67 76 f1 3d 1a b1 57 3e
       -0.22526944 -0.09607611 0.117901616 0.21063653
0003e0 be 47 8c 3e 84 99 88 3e 40 09 79 be b9 57 d3 3d
       0.27398485 0.26679623 -0.24319935 0.10319466
0003f0 da 60 10 be a0 89 9e 3d 97 dd 8f be 88 2f 5e be
       -0.14099446 0.07741094 -0.28098747 -0.21697819
